demo/FinalModel_OnlineBoutique.pt (torch, 15361 bytes, 10 tensors)

intermediate.bias f4 [20]
0	0xbd7a96d6	-0.061179005
1	0x3d57d1e3	0.052690398
2	0xbd8c9f3e	-0.068663105
3	0xbd82f3dd	-0.063941695
4	0x3d1f5856	0.038902603
5	0xbd6ade85	-0.057341117
6	0x3d6740f7	0.05645844
7	0x3d657282	0.056017406
8	0xbd7ad8c6	-0.061241888
9	0xbd7fcaa6	-0.06244912
10	0xbd891062	-0.06692578
11	0x3d74c175	0.059754808
12	0xbd728311	-0.059207026
13	0xbd8564c5	-0.06513361
14	0xbd621f83	-0.055205833
15	0xbd79fb48	-0.061030656
16	0xaab56610	-3.222288e-13
17	0xbd5903d9	-0.052982185
18	0x3d800785	0.06251434
19	0x3d782129	0.0605785

intermediate.nn.weight f4 [280, 7]
0	0xbd51d97f	-0.05123281
1	0xbd81f02f	-0.063446395
2	0xbd3cb516	-0.046071135
3	0xbd630bdb	-0.055431228
4	0xbd90ca37	-0.070698194
5	0xbd47fc68	-0.048824698
6	0x3cc33741	0.023830058
7	0x3d7c6dce	0.061628155
8	0x3d920014	0.07128921
9	0x3d63fde5	0.055662055
10	0x3d812857	0.06306522
11	0x3d9cf9ef	0.076648585
12	0x3d683f5c	0.05670105
13	0xbd1753eb	-0.036945265
14	0xbd89648e	-0.067086324
15	0xbda75c58	-0.0817191
16	0xbd8a7448	-0.0676046
17	0xbdaa44e1	-0.08313919
18	0xbdc07e97	-0.09399145
19	0xbd9cd7cf	-0.0765835
20	0x3d3ec977	0.04657885
21	0xbd961d7b	-0.07329842
22	0xbda7765c	-0.08176872
23	0xbd90e357	-0.07074612
24	0xbdab5c3c	-0.08367202
25	0xbdb016a2	-0.08598067
26	0xbd9f5799	-0.0778038
27	0x3d3f0d97	0.04664382
28	0x3d35dd32	0.0444004
29	0x3d5bb04c	0.053634927
30	0x3d2b0bf3	0.041759443
31	0x3d385008	0.0449982
32	0x3d6d1e71	0.05789036
33	0x3d22cd0a	0.03974632
34	0xbcafe3da	-0.021470953
35	0xbd58c8fc	-0.05292605
36	0xbd821fcb	-0.0635372
37	0xbd56be70	-0.05242771
38	0xbd83ec2d	-0.06441531
39	0xbd96499e	-0.0733826
40	0xbd71256a	-0.05887357
41	0x3d2368b7	0.039894786
42	0x3d2be76f	0.04196876
43	0x3d5e0249	0.054201398
44	0x3d1ddd7f	0.038541313
45	0x3d3c3a30	0.04595393
46	0x3d79a0a5	0.06094422
47	0x3d22f85e	0.039787643
48	0xbcaa0b2a	-0.020757277
49	0x3d4661c0	0.048433065
50	0x3d73f02d	0.05955522
51	0x3d3692bc	0.04457353
52	0x3d509ef9	0.05093286
53	0x3d86a010	0.06573498
54	0x3d36fc7b	0.044674378
55	0xbcc24fa1	-0.02371961
56	0xbd4bf661	-0.049795512
57	0xbd848b84	-0.06471923
58	0xbd541c2f	-0.05178469
59	0xbd8809bb	-0.06642481
60	0xbd9ea319	-0.07745952
61	0xbd76bd7f	-0.06023931
62	0x3cfa941b	0.0305882
63	0xbd65b8c1	-0.0560844
64	0xbd8ce16e	-0.06878935
65	0xbd52604d	-0.05136137
66	0xbd7106d6	-0.05884441
67	0xbd9a14f1	-0.075235255
68	0xbd5574cc	-0.05211334
69	0x3cebdf53	0.028793013
70	0xbd9419c3	-0.07231476
71	0xbdab55ad	-0.08365951
72	0xbd97e61a	-0.07416935
73	0xbdae6201	-0.085147865
74	0xbdbe9d8e	-0.09307395
75	0xbda1c9be	-0.078998074
76	0x3d49da3d	0.049280394
77	0x3d8c5f21	0.06854082
78	0x3d9f6373	0.0778264
79	0x3d8682b8	0.065679014
80	0x3d9163d9	0.070991226
81	0x3daa1e5e	0.08306573
82	0x3d84f0e1	0.064912565
83	0xbd33af17	-0.04386815
84	0xbd405e3f	-0.04696488
85	0xbd766b41	-0.06016088
86	0xbd3b0bcb	-0.045665544
87	0xbd77820c	-0.060426757
88	0xbd8f0734	-0.06983796
89	0xbd5f2a74	-0.054483846
90	0x3ce4830b	0.027894517
91	0xbd92232f	-0.07135617
92	0xbda96e26	-0.08272962
93	0xbd895cf7	-0.06707185
94	0xbd9b02ad	-0.0756887
95	0xbdb48e6d	-0.08816228
96	0xbd8ca1a5	-0.06866769
97	0x3d39ef09	0.045393977
98	0xbd36be06	-0.044614814
99	0xbd67a093	-0.05654962
100	0xbd44c037	-0.048034873
101	0xbd6e1422	-0.05812467
102	0xbd883903	-0.06651499
103	0xbd554b1f	-0.052073594
104	0x3cca1a6b	0.0246708
105	0xbd655fef	-0.055999693
106	0xbd8e50a6	-0.06948976
107	0xbd59e721	-0.053198937
108	0xbd76bef6	-0.06024071
109	0xbd9e90d0	-0.077424645
110	0xbd59be00	-0.053159714
111	0x3d04af93	0.032394003
112	0xaafd65ff	-4.5012602e-13
113	0xab18c196	-5.42699e-13
114	0xaad2a209	-3.7415928e-13
115	0xaa59840d	-1.9319286e-13
116	0xab15795e	-5.3103865e-13
117	0xaa8e9de2	-2.533382e-13
118	0x2990d4c2	6.431792e-14
119	0xbd38e6f5	-0.045142133
120	0xbd63d8bb	-0.055626612
121	0xbd373c29	-0.044735108
122	0xbd6b1e68	-0.057402045
123	0xbd80a930	-0.0628227
124	0xbd55cafc	-0.052195534
125	0x3cc8a460	0.024492443
126	0x3d5629ea	0.052286066
127	0x3d88c69e	0.06678508
128	0x3d54ed84	0.051984325
129	0x3d67031b	0.056399446
130	0x3d9a204e	0.07525693
131	0x3d497856	0.049187027
132	0xbcdb994b	-0.026806494
133	0x3d425708	0.04744628
134	0x3d78e355	0.060763676
135	0x3d3520ce	0.044220738
136	0x3d535f1b	0.05160437
137	0x3d8c7116	0.06857507
138	0x3d369441	0.04457498
139	0xbcbd0205	-0.023072252
140	0x3cc3118e	0.023812082
141	0x3cb7a5b3	0.022417879
142	0x3cc61738	0.024180993
143	0x3c62f547	0.013852424
144	0x3d21376b	0.03935949
145	0x3c0fa3e4	0.008767102
146	0x3c2be85c	0.0104924105
147	0xbcc2cffd	-0.023780817
148	0xbc945d78	-0.018110976
149	0xbca84ef4	-0.02054546
150	0xbc7f9dee	-0.015601618
151	0xbd040cf7	-0.032238927
152	0xbc293f87	-0.0103300875
153	0xbc70a579	-0.014687889
154	0x3d05c926	0.032662533
155	0x3ceeff8b	0.029174587
156	0x3cdeb606	0.027186405
157	0x3ca313df	0.019906936
158	0x3d16e4d2	0.036839314
159	0x3c868a7d	0.016423458
160	0x3c13ac3f	0.009013235
161	0x3d1e589f	0.038658734
162	0x3cb4ac78	0.022054896
163	0x3ccb1316	0.024789374
164	0x3c8807fe	0.016605373
165	0x3d105a41	0.035242323
166	0x3c54ecc2	0.012995901
167	0x3c4f6217	0.012657664
168	0xbca96baa	-0.020681221
169	0xbc89b63f	-0.016810535
170	0xbc7df44d	-0.01550014
171	0xbc597310	-0.013272062
172	0xbcaa816b	-0.020813664
173	0xbc2a4424	-0.010392223
174	0xbba03432	-0.0048890347
175	0x3d16d508	0.036824256
176	0x3cb48d38	0.022039995
177	0x3ca39d2e	0.01997241
178	0x3c74787c	0.014921304
179	0x3d032985	0.032022018
180	0x3c17568c	0.009236943
181	0x3c2d436b	0.010575156
182	0xbd26a491	-0.040684287
183	0xbcefd31f	-0.029275475
184	0xbceba928	-0.028767183
185	0xbcace6f6	-0.021106225
186	0xbce8a087	-0.028396858
187	0xbc92982d	-0.017894829
188	0xbc31d93a	-0.0108550135
189	0xbcb12f96	-0.021629136
190	0xbcdac9de	-0.026707586
191	0xbcd54a7d	-0.026036495
192	0xbcbf1544	-0.02332557
193	0xbd1127ea	-0.035438456
194	0xbc9d638a	-0.019212503
195	0xbc2079e1	-0.009794683
196	0x3cf3d9be	0.029766914
197	0x3cfd69c0	0.030934215
198	0x3cff2b1b	0.031148484
199	0x3cc3f941	0.023922564
200	0x3d24f819	0.040275667
201	0x3ca0b44e	0.019617226
202	0x3bcf8383	0.006332816
203	0x3d2a66b7	0.041601863
204	0x3d1cbde6	0.03826704
205	0x3d0b5101	0.0340128
206	0x3d02942c	0.03187959
207	0x3d43496e	0.04767745
208	0x3ce03202	0.027367596
209	0x3ba7b084	0.005117478
210	0x3cf66861	0.030079069
211	0x3cefc897	0.029270453
212	0x3cf53d4c	0.029936455
213	0x3cae5960	0.021282852
214	0x3d1d98e3	0.038475882
215	0x3c7ecd6c	0.015551906
216	0x3bf8b8be	0.0075903824
217	0xbce3952f	-0.027781097
218	0xbcbd083a	-0.023075212
219	0xbcabed11	-0.020987066
220	0xbc2bbad6	-0.010481557
221	0xbcdeba3f	-0.027188418
222	0xbbdee7bc	-0.0068025272
223	0xbc339cdd	-0.010962692
224	0x3cfe1505	0.031015882
225	0x3ce20aca	0.027593035
226	0x3cdf5dbe	0.02726638
227	0x3cb9e106	0.022690307
228	0x3d17116e	0.036881857
229	0x3ca1ec3d	0.019765968
230	0x3c25ede2	0.010127516
231	0x3cd0be44	0.02548135
232	0x3d224a5b	0.039621692
233	0x3d0a31c9	0.033738885
234	0x3cfb039e	0.030641373
235	0x3d2621cf	0.040559586
236	0x3ce86371	0.02836773
237	0x3b3070fa	0.0026922808
238	0x3cf3c52d	0.029757107
239	0x3cf08b3c	0.029363267
240	0x3cf3ff07	0.029784692
241	0x3cba5de5	0.02274985
242	0x3cfc8b40	0.030828118
243	0x3c93daba	0.018048633
244	0x3ba86767	0.0051392796
245	0x3d02d992	0.031945772
246	0x3ccc2319	0.02491908
247	0x3cc1d7e2	0.023662511
248	0x3c9e9577	0.01935838
249	0x3d0c8964	0.034310713
250	0x3c7e4194	0.015518565
251	0x3c370541	0.011170686
252	0x28ce2e77	2.2890745e-14
253	0x2a2eec2e	1.5536246e-13
254	0x2a5c94de	1.9591574e-13
255	0x287518f4	1.3605643e-14

intermediate.nn.bias f4 [280]
0	0xbd0b8949	-0.034066472
1	0x3d1dbf4c	0.038512513
2	0xbd3b9bf1	-0.045803014
3	0xbd26ba00	-0.040704727
4	0x3ce9e32d	0.028550709
5	0xbd0c852a	-0.034306683
6	0x3ce84e39	0.028357612
7	0x3cf28d73	0.029608464
8	0xbd00a333	-0.03140564
9	0xbd163c79	-0.036678765
10	0xbd42a583	-0.047521126
11	0x3d3ae7a3	0.045631062
12	0xbcfcbb0b	-0.030850908
13	0xbd3ec78f	-0.046577033
14	0xbce2ffed	-0.027709926
15	0xbd1c90c7	-0.038224008
16	0x2a0ec3a2	1.2680007e-13
17	0xbce5e54f	-0.028063444
18	0x3d13463b	0.03595565
19	0x3d00aee7	0.0314168
20	0xbcd7e096	-0.026352208
21	0x3cdbe376	0.02684186
22	0xbcbbdc5e	-0.022932228
23	0xbce08727	-0.027408196
24	0x3c9218a9	0.017834025
25	0xbccc63a2	-0.024949852
26	0x3cb80d91	0.022467406
27	0x3cc94e6b	0.024573525
28	0xbcbae8ee	-0.022816148
29	0xbcb82c95	-0.022482196
30	0xbcba954a	-0.022776265
31	0x3cbdd616	0.023173373
32	0xbce13afa	-0.027493943
33	0xbc75944d	-0.014988971
34	0xbcdefdc9	-0.027220624
35	0xbcfc8c63	-0.03082866
36	0xa9243ddd	-3.6468973e-14
37	0xbc5e5bdd	-0.013571707
38	0x3cf7dcae	0.030256595
39	0x3ca9a455	0.020708242
40	0xbb731500	-0.0037091374
41	0xbb4f1adb	-0.00316017
42	0xbbbc580f	-0.005747802
43	0xbba21308	-0.0049461164
44	0xbc307bf7	-0.010771743
45	0xb9494242	-0.00019193537
46	0x3b20ba0b	0.0024524953
47	0xba310ad4	-0.00067536277
48	0xbb4c03f5	-0.0031130288
49	0xbc39a4e6	-0.011330819
50	0xbb9a9741	-0.004717738
51	0x3b9b6eba	0.0047434242
52	0x3a8da977	0.0010807951
53	0xbba198d8	-0.0049315505
54	0x3b776d94	0.0037754523
55	0x3a01b4ac	0.00049478817
56	0xaa3d7923	-1.68286e-13
57	0xbbbe07a6	-0.0057992516
58	0xbba3426e	-0.0049822843
59	0xb908a88e	-0.00013032762
60	0xbd5b1b9c	-0.053493127
61	0x3d3bf28c	0.045885608
62	0xbd773745	-0.060355444
63	0xbd67d487	-0.056599166
64	0x3d088766	0.03333225
65	0xbd4e27c8	-0.050330907
66	0x3d477f99	0.04870567
67	0x3d440e07	0.04786494
68	0xbd555feb	-0.052093428
69	0xbd646100	-0.05575657
70	0xbd6fc037	-0.05853292
71	0x3d5a41bc	0.053285345
72	0xbd5119c5	-0.051049966
73	0xbd6bb4a2	-0.05754531
74	0xbd46a86c	-0.048500463
75	0xbd5db0df	-0.054123756
76	0xaaaceaf8	-3.071638e-13
77	0xbd415902	-0.047204025
78	0x3d5c635d	0.053805698
79	0x3d54d2bf	0.051958796
80	0xbb5216c3	-0.0032057024
81	0x3b736698	0.0037140008
82	0xbbd3567c	-0.0064495187
83	0xbbb35d36	-0.005473758
84	0x3b7bc7ce	0.0038418653
85	0xbb98538e	-0.0046486324
86	0x3bb3e0d5	0.0054894486
87	0x3baa6b09	0.005200748
88	0xbc044dac	-0.008075159
89	0xbb625b8b	-0.0034539427
90	0xbc01782c	-0.007902186
91	0x3baedd9a	0.0053364756
92	0xbbe2a675	-0.006916816
93	0xbbe02a74	-0.0068409983
94	0xbbb780bf	-0.0056000645
95	0xbba47ca6	-0.005019742
96	0xa9118a62	-3.2316496e-14
97	0xbba107f9	-0.0049142805
98	0x3be606b7	0.0070198434
99	0x3bc44c36	0.0059905304
100	0xbce30ce3	-0.027716106
101	0x3d070c23	0.03297056
102	0xbd161f73	-0.036651086
103	0xbd0af71f	-0.03392708
104	0x3cb576ed	0.022151435
105	0xbcdf2b9f	-0.02724248
106	0x3cad4a04	0.021153457
107	0x3cb46a94	0.022023477
108	0xbcac7817	-0.021053357
109	0xbcf64ab0	-0.03006491
110	0xbd18300c	-0.037155196
111	0x3d1eaf65	0.038741488
112	0xbcba981c	-0.02277761
113	0xbd1ce86e	-0.0383076
114	0xbc9f18b7	-0.019420965
115	0xbcf9b3f0	-0.030481309
116	0xaa23d810	-1.455227e-13
117	0xbca8a2b5	-0.020585397
118	0x3cdd81d7	0.027039452
119	0x3cbb3ec7	0.022857083
120	0x3c0795e7	0.008275486
121	0xbbd68b38	-0.006547358
122	0x3bc38aaf	0.00596746
123	0xb9d7cd26	-0.00041160843
124	0xbb90f8ce	-0.004424191
125	0x3be96e74	0.0071237627
126	0xbab7436e	-0.0013981888
127	0xbba78943	-0.0051127984
128	0x3b83e4e0	0.0040250868
129	0x3b86fa5c	0.0041192006
130	0xb991e4fa	-0.00027827156
131	0xbac07562	-0.001468342
132	0x3bca642d	0.0061764927
133	0x3c03ac90	0.008036748
134	0xbb11f0a3	-0.0022268675
135	0x3c1474df	0.009061067
136	0xaa9ca935	-2.7828578e-13
137	0x3bfd5650	0.0077312365
138	0xbb7f5ec3	-0.0038966394
139	0xbbf78353	-0.007553497
140	0xbcc77fd6	-0.02435295
141	0x3d049a91	0.03237397
142	0xbd0cd2e5	-0.034380812
143	0xbcddd97b	-0.027081242
144	0x3c743dd8	0.014907323
145	0xbce2a2f3	-0.02766559
146	0x3ce0482f	0.02737817
147	0x3cc5298d	0.024067665
148	0xbcf72a03	-0.0301714
149	0xbd14f735	-0.036368567
150	0xbced971c	-0.029002719
151	0x3ca03879	0.019558178
152	0xbcf64fd6	-0.030067366
153	0xbd038011	-0.032104556
154	0xbccf5ecf	-0.025313763
155	0xbcd63997	-0.026150508
156	0xaa897798	-2.4419074e-13
157	0xbcf2fdb9	-0.029662
158	0x3cfad3aa	0.030618507
159	0x3cb55dde	0.022139486
160	0xbc682ee8	-0.01417134
161	0x3aa7a532	0.0012790321
162	0xbc794aa5	-0.015215551
163	0xbbf7f383	-0.0075668707
164	0xbbb4776c	-0.0055074003
165	0xbbd0d5ba	-0.0063731344
166	0x3b9eb05c	0.004842801
167	0x3c3a3fb5	0.011367728
168	0xbc26c1a7	-0.010178006
169	0xbc7051bb	-0.014667924
170	0xbbafbb1d	-0.005362882
171	0x3c6255f5	0.013814439
172	0xbc0ae8c8	-0.008478351
173	0xbc1861c7	-0.009300656
174	0x3b0dc187	0.0021630244
175	0xbc81e3ab	-0.01585563
176	0xaa08a6da	-1.2137115e-13
177	0xbb86a13a	-0.004108575
178	0x3c064fdf	0.008197754
179	0x3bc823ff	0.0061078067
180	0xbd7aa7dc	-0.06119524
181	0x3d57d215	0.052690584
182	0xbd8c9b66	-0.068655774
183	0xbd82f41c	-0.063942164
184	0x3d1f5a56	0.03890451
185	0xbd6ade9f	-0.057341214
186	0x3d6742d4	0.056460217
187	0x3d65844c	0.05603437
188	0xbd7adf73	-0.061248254
189	0xbd7fbc8e	-0.06243568
190	0xbd8914bf	-0.0669341
191	0x3d74c22c	0.05975549
192	0xbd728704	-0.059210792
193	0xbd8564d0	-0.06513369
194	0xbd622164	-0.055207625
195	0xbd79fb3e	-0.06103062
196	0xaaaf3557	-3.1123257e-13
197	0xbd5903ab	-0.052982014
198	0x3d800775	0.06251422
199	0x3d7821a1	0.060578946
200	0xbd78c461	-0.060734157
201	0x3d4c79d7	0.049920883
202	0xbd846c82	-0.06466009
203	0xbd690be4	-0.056896105
204	0x3d02c28e	0.031923823
205	0xbd50d88e	-0.050987773
206	0x3d42a446	0.047519945
207	0x3d55e63b	0.052221518
208	0xbd7abfe2	-0.06121815
209	0xbd8c7569	-0.06858332
210	0xbd8c0025	-0.06835965
211	0x3d69600a	0.056976356
212	0xbd4f4062	-0.05059851
213	0xbd8753f4	-0.0660781
214	0xbd362e7f	-0.044477936
215	0xbd744d37	-0.05964395
216	0xaab7d232	-3.2653182e-13
217	0xbd45cdb2	-0.04829187
218	0x3d5d0c30	0.0539667
219	0x3d52e99d	0.051492322
220	0x3a16aefb	0.000574812
221	0x395d11ff	0.00021082906
222	0x3a63d9d6	0.0008691823
223	0xb9902f02	-0.00027500844
224	0xb99de3fc	-0.00030115235
225	0xb9509150	-0.00019890559
226	0xba08e270	-0.000522173
227	0xba0cced5	-0.00053713965
228	0xb9a7623d	-0.00031925915
229	0x3a805c1b	0.0009793075
230	0x3a5ad8ab	0.0008348326
231	0x39a4489e	0.00031334622
232	0xb80a1714	-3.2923257e-05
233	0x3a4a1f1f	0.0007710326
234	0x3a114a76	0.00055424066
235	0x3a40c27b	0.00073531986
236	0xa658b4c6	-7.518505e-16
237	0x3a196b5d	0.0005852485
238	0xba28588a	-0.0006421885
239	0x39a1f9d0	0.00030894438
240	0xbcd7da54	-0.026349224
241	0x3cdbe51f	0.026842652
242	0xbcbbf227	-0.022942616
243	0xbce0879a	-0.02740841
244	0x3c9222c9	0.017838852
245	0xbccc6398	-0.024949834
246	0x3cb80aea	0.022466142
247	0x3cc9611c	0.024582438
248	0xbcbabca0	-0.022795022
249	0xbcb843b4	-0.02249322
250	0xbcba9341	-0.022775294
251	0x3cbdd60c	0.023173355
252	0xbce13986	-0.02749325
253	0xbc75baa9	-0.0149981165
254	0xbcdee814	-0.027210273
255	0xbcfc8bec	-0.030828439

intermediate.lin.weight f4 [20, 14]
0	0xbc5a6b22	-0.0133312065
1	0xbd54136a	-0.051776327
2	0x3c0622f5	0.008187045
3	0xbd8015ed	-0.06254182
4	0x3b0f6daf	0.0021885445
5	0xbc33292c	-0.010935109
6	0xbcc2dfc4	-0.02378834
7	0xbcb79e2f	-0.022414295
8	0xbbb7ceb0	-0.005609356
9	0xbd7a88fe	-0.061165802
10	0xbd1a9713	-0.03774173
11	0x3b94bad1	0.004538872
12	0xbd54133d	-0.05177616
13	0x3ccd0dc1	0.025030972
14	0x3c6f7636	0.014615586
15	0x3d53d11b	0.05171309
16	0xbbf344e4	-0.007423984
17	0x3d5e000c	0.054199263
18	0xb7139980	-8.797622e-06
19	0x3c25907c	0.010105249
20	0x3caa0bf6	0.020757657
21	0x3c969bdb	0.018384865
22	0x3bbe75a8	0.0058123656
23	0x3d57d226	0.052690648
24	0x3d2426b8	0.040075988
25	0xbb824938	-0.0039760135
26	0x3d53d230	0.051714122
27	0xbce2f41a	-0.027704287
28	0xbc4558c7	-0.012045092
29	0xbd74c4d6	-0.05975803
30	0x3b0216e1	0.0019850063
31	0xbd8e64ee	-0.069528446
32	0xba57b14b	-0.0008228018
33	0xbbf9b162	-0.0076200226
34	0xbcf12a92	-0.029439244
35	0xbcd80f9a	-0.026374627
36	0xbbfeed6a	-0.007779767
37	0xbd8cb1b5	-0.068698324
38	0xbd4a25f7	-0.049352612
39	0x3b54f521	0.003249474
40	0xbd74c47b	-0.05975769
41	0x3ce70b5f	0.028203664
42	0xbc68bc1c	-0.014205005
43	0xbd52b778	-0.0514445
44	0xbaa6ba4a	-0.0012720313
45	0xbd82f95d	-0.063952185
46	0xba9eb70b	-0.0012108994
47	0xbc083342	-0.008313002
48	0xbcee11ae	-0.029061165
49	0xbcbdaa27	-0.023152424
50	0xbbfc7777	-0.007704671
51	0xbd82f38a	-0.06394108
52	0xbd318b7f	-0.043345924
53	0x3b85d9cc	0.0040848013
54	0xbd52b722	-0.05144418
55	0x3cba61b6	0.02275167
56	0x3bc03e4f	0.0058668028
57	0x3cc80de7	0.024420692
58	0xbb71b020	-0.003687866
59	0x3d2335e3	0.039846312
60	0x3a897dc1	0.0010489748
61	0x3b5ec4cc	0.0033991812
62	0x3bd93b97	0.006629418
63	0x3c8d72e4	0.017266698
64	0x3ad5449e	0.001627106
65	0x3d1f5860	0.03890264
66	0x3ccd29ec	0.025044404
67	0xba464cd2	-0.00075645477
68	0x3cc80e44	0.024420865
69	0xbc9b2f48	-0.018943444
70	0xbbc886f2	-0.0061196024
71	0xbd4ff45c	-0.05077015
72	0x3bebf01e	0.007200255
73	0xbd6f282b	-0.058387917
74	0x3b0492d3	0.0020229116
75	0xbb458750	-0.0030140467
76	0xbcb7cca6	-0.022436451
77	0xbc9ecbb9	-0.019384252
78	0xbbb0a854	-0.00539116
79	0xbd6ade9a	-0.057341196
80	0xbd1e46ff	-0.038641926
81	0x3b9a2114	0.0047036503
82	0xbd4ff4c4	-0.050770536
83	0x3cfdfc8e	0.031004217
84	0x3bc6d105	0.0060673975
85	0x3d27c3b5	0.040958125
86	0x3a7b77ec	0.000959276
87	0x3d6ba956	0.05753454
88	0x3addb70d	0.0016915515
89	0x3ade5fb0	0.0016965773
90	0x3cc3fb93	0.02392367
91	0x3c84c4b7	0.016207082
92	0x3bb036bd	0.005377619
93	0x3d6740a2	0.056458123
94	0x3d247ede	0.040160052
95	0xbb20f486	-0.002455981
96	0x3d27c33d	0.040957678
97	0xbca9f3e5	-0.02074618
98	0x3c6cc94d	0.014452291
99	0x3d27391a	0.04082594
100	0xba6ae6f5	-0.0008960807
101	0x3d66ea4e	0.056375794
102	0xb908fc38	-0.0001306393
103	0x3c31231e	0.010811595
104	0x3c5c2ac9	0.013437935
105	0x3cd2da7e	0.02573895
106	0x3c0e20e3	0.008674833
107	0x3d658980	0.056039333
108	0x3d2af1ed	0.041734625
109	0xbb6fa702	-0.003656805
110	0x3d273968	0.04082623
111	0xbcceb9c4	-0.025235064
112	0xbc5ae049	-0.013359138
113	0xbd49f44f	-0.049305256
114	0x3a3d983e	0.00072324637
115	0xbd79c304	-0.060976997
116	0xb962a200	-0.00021613389
117	0xbc0b8bd8	-0.008517228
118	0xbc8f92dc	-0.017526083
119	0xbcb8d15f	-0.022560773
120	0xbc2bcc87	-0.010485775
121	0xbd7ac5b8	-0.061223716
122	0xbd2da520	-0.042393804
123	0x3b8f1286	0.004366222
124	0xbd49f4c2	-0.049305685
125	0x3cb1210e	0.021622207
126	0xbc46802b	-0.012115519
127	0xbd79187d	-0.06081437
128	0x3b1c962b	0.0023893218
129	0xbd828550	-0.063730836
130	0x3a6a8926	0.00089468283
131	0xbbe9b305	-0.0071319365
132	0xbcff0e6a	-0.031134803
133	0xbcd862fb	-0.026414385
134	0xbb9645d6	-0.004585962
135	0xbd7fcabc	-0.062449202
136	0xbd1b1167	-0.037858393
137	0x3bb08e61	0.0053880666
138	0xbd7914cd	-0.060810853
139	0x3caa1da2	0.020766083
140	0xbc920f2b	-0.017829498
141	0xbd626132	-0.055268474
142	0x3b178ea8	0.0023125801
143	0xbd8ae14b	-0.067812525
144	0x3a41ffd2	0.0007400486
145	0xbc4c5ad5	-0.012472828
146	0xbcf8f6b3	-0.030391073
147	0xbcb1ec63	-0.021719163
148	0xbbc4e04a	-0.0060081827
149	0xbd891546	-0.06693511
150	0xbd064d5b	-0.032788616
151	0x3bc10374	0.005890304
152	0xbd62611a	-0.055268385
153	0x3c5ee6e8	0.013604857
154	0x3c17ac71	0.009257422
155	0x3d5b1b44	0.0534928
156	0xbaa7bfd9	-0.0012798264
157	0x3d76fcbb	0.060299616
158	0x3b18d126	0.0023318022
159	0x3bb653ca	0.0055641877
160	0x3cdad8de	0.026714738
161	0x3c9c7768	0.019099906
162	0x3c2b560c	0.010457527
163	0x3d74c060	0.059753776
164	0x3d1d0b66	0.03834095
165	0xba9315ff	-0.0011221765
166	0x3d5b1afa	0.053492524
167	0xbca8e4d7	-0.020616932
168	0xbc81e763	-0.015857404
169	0xbd33e284	-0.043917194
170	0x3aed79a2	0.0018117914
171	0xbd76f416	-0.060291372
172	0xb9de42f8	-0.00042393035
173	0xbc3cb6ac	-0.011518162
174	0xbc8babf7	-0.017049773
175	0xbc8be506	-0.01707698
176	0xbc68bb3f	-0.014204799
177	0xbd728763	-0.059211146
178	0xbd4dc3cf	-0.050235566
179	0x3b74fe97	0.0037383193
180	0xbd33ded2	-0.04391367
181	0x3d04ae42	0.032392748
182	0xbc94e75a	-0.018176723
183	0xbd766c10	-0.06016165
184	0x3be53e42	0.006995947
185	0xbd864ef9	-0.065580316
186	0xbb268c77	-0.0025413313
187	0xbc4cf461	-0.012509436
188	0xbcee54fe	-0.029093262
189	0xbc910d0d	-0.017706418
190	0xbb4785d2	-0.0030444753
191	0xbd8564cb	-0.06513365
192	0xbd0ee5d4	-0.03488715
193	0x3b2874eb	0.0025704454
194	0xbd766c3b	-0.06016181
195	0x3cdccad6	0.026952188
196	0xbc38478c	-0.011247527
197	0xbd08254b	-0.03323869
198	0xba7ca75c	-0.00096379756
199	0xbd617a96	-0.055048548
200	0x3ab8b498	0.0014091907
201	0xbc021ee5	-0.007941936
202	0xbc590e95	-0.0132481055
203	0xbd0f572e	-0.03499525
204	0xbac51b97	-0.001503813
205	0xbd6221c7	-0.055207994
206	0xbd46651d	-0.048436273
207	0x3b9beeb6	0.004758681
208	0xbd083614	-0.033254698
209	0x3ce86c1f	0.028371869
210	0xbc880fe0	-0.016609132
211	0xbd657559	-0.056020115
212	0x3bcae3cf	0.0061917077
213	0xbd7f126d	-0.06227343
214	0xb99e9cf1	-0.0003025304
215	0xbc41fd3f	-0.011840164
216	0xbc9b1530	-0.018931001
217	0xbcb852de	-0.022500452
218	0xbc3f90ca	-0.011692235
219	0xbd79fae6	-0.06103029
220	0xbd363ef5	-0.044493634
221	0x3b96c6ef	0.0046013515
222	0xbd657531	-0.056019966
223	0x3d101d80	0.035184383
224	0xa819a83e	-8.529688e-15
225	0xaab7d4b6	-3.2654928e-13
226	0xaab812f5	-3.269812e-13
227	0xaaafc550	-3.1223158e-13
228	0xa954e4f2	-4.7272035e-14
229	0x2780c01d	3.5735426e-15
230	0xa9ef382d	-1.0623477e-13
231	0xaa47be12	-1.7740694e-13
232	0xaa2a42d2	-1.5122216e-13
233	0xaab3dd5d	-3.195039e-13
234	0xaa2a5eb1	-1.5131886e-13
235	0x282ff4ad	9.767507e-15
236	0xaac0f8c8	-3.4278678e-13
237	0x2b0a82e4	4.9209096e-13
238	0xbc761a21	-0.015020878
239	0xbd2eab3d	-0.042643774
240	0x3c122f9d	0.008922485
241	0xbd571ec2	-0.052519567
242	0xbb0f0043	-0.0021820224
243	0xbc22d1e0	-0.009937733
244	0xbcc57c2e	-0.024107065
245	0xbc82b74b	-0.015956542
246	0x3acbea36	0.0015557471
247	0xbd5903a2	-0.05298198
248	0xbd1049ba	-0.03522656
249	0x3b3c1599	0.0028699397
250	0xbd2eab79	-0.042643998
251	0x3ce0c911	0.027439626
252	0x3c801a08	0.015637413
253	0x3d4bea8b	0.049784224
254	0xbb1c1a3c	-0.0023819348
255	0x3d83a258	0.06427449

local_scorer.att_src f4 [1, 4, 4]
0	0x3e0aa2e6	0.13538703
1	0x3dca13ce	0.09867059
2	0x3de4f325	0.11179189
3	0x3e2530c3	0.16131882
4	0x3e061084	0.13092238
5	0x3dc03c1c	0.09386465
6	0x3ddb7c1b	0.107170306
7	0x3e2050b0	0.1565578
8	0x3e046849	0.12930407
9	0x3db93f9c	0.09045336
10	0x3dd5fff8	0.10449213
11	0x3e2038ef	0.15646718
12	0x3e0c7da0	0.13719797
13	0x3dccd4f6	0.100015566
14	0x3de8c117	0.11364954
15	0x3e29c57a	0.16579238

local_scorer.att_dst f4 [1, 4, 4]
0	0xbd1bffbf	-0.038085695
1	0xbd06af45	-0.032881994
2	0xbd0ecd80	-0.03486395
3	0xbd2ca855	-0.04215272
4	0xbd064ef6	-0.032790147
5	0xbce89306	-0.028390419
6	0xbcf7224d	-0.030167723
7	0xbd15bc7a	-0.0365567
8	0xbcef701c	-0.029228263
9	0xbcb92d1c	-0.022604518
10	0xbccd1f1d	-0.02503925
11	0xbd0b31be	-0.033982985
12	0xbce89596	-0.02839164
13	0xbcbfaa63	-0.023396676
14	0xbccea3fb	-0.025224676
15	0xbd03b6a4	-0.0321566

local_scorer.bias f4 [4]
0	0x3e888ff4	0.26672328
1	0x3e384ac3	0.1799727
2	0x3e57e7e6	0.21084556
3	0x3ea697c3	0.3253766

local_scorer.lin.weight f4 [16, 20]
0	0xbdbe32da	-0.09287043
1	0x3d96e9e7	0.07368832
2	0xbdda5515	-0.10660759
3	0xbdd49f3f	-0.10381936
4	0x3d788b26	0.060679577
5	0xbda97fc4	-0.082763225
6	0x3dab035a	0.08350249
7	0x3dae9833	0.085251234
8	0xbdcbb7ee	-0.09947191
9	0xbdd00a59	-0.10158224
10	0xbddbee8f	-0.10738861
11	0x3dc23cad	0.09484229
12	0xbdaff6b4	-0.08591977
13	0xbdcf5d40	-0.10125208
14	0xbdb129c8	-0.08650547
15	0xbdb8afdd	-0.09017918
16	0xa92a0840	-3.775474e-14
17	0xbda9d7d5	-0.0829312
18	0x3db08435	0.086189665
19	0x3da0579e	0.07829212
20	0xbd81121c	-0.06302282
21	0x3d413f8c	0.047179744
22	0xbd9c173c	-0.07621619
23	0xbd985304	-0.07437709
24	0x3d271120	0.040787816
25	0xbd62ddd7	-0.055387344
26	0x3d6baa38	0.05753538
27	0x3d6ed7b2	0.05831117
28	0xbd8da220	-0.069156885
29	0xbd948d01	-0.07253457
30	0xbd9c5900	-0.07634163
31	0x3d8db88f	0.069199674
32	0xbd6cfc4e	-0.057857804
33	0xbd917a5d	-0.07103417
34	0xbd7220b8	-0.059113234
35	0xbd793a1d	-0.060846437
36	0xaa863c90	-2.3845205e-13
37	0xbd6a6b86	-0.05723145
38	0x3d6a1e2f	0.05715769
39	0x3d515e62	0.0511154
40	0xbd971c7d	-0.073784806
41	0x3d67a3f5	0.056552846
42	0xbdb24a6e	-0.087056026
43	0xbdae21bc	-0.08502528
44	0x3d441639	0.047872756
45	0xbd8554e2	-0.06510331
46	0x3d88d65c	0.06681511
47	0x3d8b5886	0.06803994
48	0xbda418bd	-0.08012531
49	0xbdaa3c2c	-0.08312258
50	0xbdb377f0	-0.08763111
51	0x3da0cc4e	0.07851468
52	0xbd8b4166	-0.06799583
53	0xbda7e978	-0.081988275
54	0xbd8d4a51	-0.0689894
55	0xbd924a80	-0.07143116
56	0xaa44e21b	-1.7486743e-13
57	0xbd87fef0	-0.06640422
58	0x3d8a383c	0.06749007
59	0x3d790925	0.060799737
60	0xbde97133	-0.11398544
61	0x3dbbb2e5	0.09164981
62	0xbe03032b	-0.12794177
63	0xbdfd2d5d	-0.12362168
64	0x3d98cfda	0.074615195
65	0xbdd0d663	-0.10197141
66	0x3dd0e8f7	0.102006845
67	0x3dd56f8b	0.10421666
68	0xbdf6d920	-0.12053132
69	0xbdf8ff7c	-0.12158105
70	0xbe039e57	-0.1285337
71	0x3de717e5	0.112838544
72	0xbdd8da30	-0.10588491
73	0xbdf968db	-0.12178203
74	0xbdd8e79a	-0.105910495
75	0xbde31394	-0.110877186
76	0x2a3c4b0e	1.6723794e-13
77	0xbdcf7a72	-0.101307765
78	0x3ddb8c51	0.107201226
79	0x3dc951a7	0.09830027
80	0xbda01fba	-0.07818551
81	0x3d9a606f	0.075379245
82	0xbdc96444	-0.09833577
83	0xbdb74bd0	-0.08950007
84	0x3d842d12	0.06453909
85	0xbd9cf677	-0.07664197
86	0x3d9d9bc1	0.07695723
87	0x3da3b4db	0.0799348
88	0xbdc74c35	-0.09731332
89	0xbdc304e6	-0.09522419
90	0xbdb749f2	-0.08949651
91	0x3d9ec25d	0.077519156
92	0xbda2799f	-0.07933354
93	0xbdc91a71	-0.098194964
94	0xbdb9c831	-0.090713866
95	0xbda4c80d	-0.08045969
96	0xab06aafe	-4.784366e-13
97	0xbdab2518	-0.083566844
98	0x3da59ea3	0.08086898
99	0x3da22f6b	0.079192005
100	0xbd523972	-0.051324315
101	0x3d483c46	0.048885606
102	0xbd8d1981	-0.0688963
103	0xbd7f5aea	-0.06234256
104	0x3d34bd95	0.044126112
105	0xbd502786	-0.050818942
106	0x3d51f387	0.051257636
107	0x3d5ba47f	0.053623673
108	0xbd8b916d	-0.06814847
109	0xbd8d3650	-0.06895125
110	0xbd79bf32	-0.060973354
111	0x3d5e90a7	0.05433717
112	0xbd56cfe6	-0.05244436
113	0xbd890e1a	-0.06692143
114	0xbd835691	-0.064129956
115	0xbd5e957a	-0.05434177
116	0xaab0793b	-3.1348e-13
117	0xbd7000ff	-0.0585947
118	0x3d5bc28f	0.053652342
119	0x3d53d994	0.05172117
120	0xbd793b67	-0.060847666
121	0x3d6f18e7	0.058373358
122	0xbda2b2ba	-0.07944246
123	0xbd93ce5e	-0.07217096
124	0x3d528e9c	0.051405534
125	0xbd75bf04	-0.05999662
126	0x3d77adf7	0.06046864
127	0x3d810feb	0.06301864
128	0xbda11c44	-0.07866719
129	0xbda0c4fb	-0.07850071
130	0xbd91e7a7	-0.07124262
131	0x3d803492	0.06260027
132	0xbd7e436f	-0.06207603
133	0xbda07787	-0.07835298
134	0xbd96e739	-0.07368321
135	0xbd823217	-0.0635721
136	0xaa9a6fc6	-2.7433454e-13
137	0xbd8a25e2	-0.06745507
138	0x3d818dc8	0.06325871
139	0x3d7bb24b	0.06144933
140	0xbdc7d798	-0.09757918
141	0x3dc000c8	0.09375149
142	0xbdf3fcc6	-0.11913447
143	0xbdddef61	-0.108366735
144	0x3da17d7a	0.07885261
145	0xbdc35439	-0.095375486
146	0x3dc2cf6d	0.095122196
147	0x3dc97a23	0.09837749
148	0xbdf13faa	-0.11779721
149	0xbde81b54	-0.113333374
150	0xbddfa8bc	-0.109208554
151	0x3dc0b641	0.09409762
152	0xbdc941c3	-0.09826996
153	0xbdf5542e	-0.119789466
154	0xbddfcd14	-0.109277874
155	0xbdcb6eaa	-0.09933217
156	0xab20f451	-5.7182476e-13
157	0xbdcfcda1	-0.101466425
158	0x3dce29e7	0.10066586
159	0x3dcb9d17	0.09942072
160	0xbdb348aa	-0.08754094
161	0x3db59868	0.0886696
162	0xbdc1f6eb	-0.09470924
163	0xbdc7baa9	-0.097523995
164	0x3d89a5b7	0.06721061
165	0xbd9d9beb	-0.076957546
166	0x3db0ae2f	0.08626973
167	0x3db6c091	0.08923448
168	0xbdd009fa	-0.10158153
169	0xbdc55d46	-0.09636931
170	0xbdd2e5c2	-0.10297729
171	0x3db1bc4e	0.086784944
172	0xbdb3e615	-0.08784119
173	0xbdc07433	-0.09397163
174	0xbdbf1aa4	-0.09331253
175	0xbdb9c13a	-0.09070058
176	0xab04649e	-4.7035455e-13
177	0xbdb6b95a	-0.08922072
178	0x3dc04e1a	0.09389897
179	0x3da6027b	0.08105942
180	0xbd76ba7a	-0.06023643
181	0x3d70710a	0.058701552
182	0xbd85f426	-0.06540708
183	0xbd8c06fe	-0.06837271
184	0x3d38d7c6	0.045127653
185	0xbd4da36a	-0.050204672
186	0x3d7394f7	0.059468236
187	0x3d7bf24e	0.061510377
188	0xbd919f50	-0.071104646
189	0xbd8c4218	-0.06848544
190	0xbd9444d1	-0.07239688
191	0x3d7ee8b5	0.062233645
192	0xbd6e3efe	-0.058165543
193	0xbd83e3e8	-0.06439954
194	0xbd82bef0	-0.06384075
195	0xbd78445a	-0.06061206
196	0xaaa189ec	-2.8695048e-13
197	0xbd7a1ae5	-0.061060805
198	0x3d81acfc	0.06331822
199	0x3d593e4f	0.053037938
200	0xbd8f6824	-0.07002285
201	0x3d8e4dcc	0.06948432
202	0xbd9b9235	-0.07596246
203	0xbda1d16e	-0.07901274
204	0x3d598fde	0.053115718
205	0xbd74d618	-0.05977449
206	0x3d8d8954	0.06910959
207	0x3d92a7a2	0.0716088
208	0xbda82a2e	-0.0821117
209	0xbda1646c	-0.07880482
210	0xbdab0931	-0.083513625
211	0x3d91b4f3	0.071145914
212	0xbd8d6147	-0.0690332
213	0xbd9a01fe	-0.07519911
214	0xbd98c669	-0.07459719
215	0xbd9280bb	-0.0715346
216	0xaaf32500	-4.3191145e-13
217	0xbd91fba2	-0.07128073
218	0x3d97faed	0.07420907
219	0x3d81220c	0.06305322
220	0xbddafb9f	-0.10692524
221	0x3dde5fb5	0.108580984
222	0xbdecadb3	-0.11556568
223	0xbdf0e4a3	-0.11762359
224	0x3da9b288	0.08286005
225	0xbdc507a7	-0.096206
226	0x3dd74a7d	0.105122544
227	0x3ddeb09a	0.10873528
228	0xbdfb41be	-0.12268399
229	0xbdecbbec	-0.11559281
230	0xbdfdbbac	-0.12389311
231	0x3dd577ab	0.104232155
232	0xbdde2994	-0.10847774
233	0xbdeb0a61	-0.11476589
234	0xbde8fd41	-0.11376429
235	0xbde43f84	-0.11144927
236	0xab0527b0	-4.730617e-13
237	0xbddfa3c5	-0.109199084
238	0x3ded2656	0.115795776
239	0x3dcfe0e1	0.10150314
240	0xbdb14809	-0.08656318
241	0x3dae2e8e	0.08504973
242	0xbdd3916d	-0.10330472
243	0xbdd872cf	-0.10568773
244	0x3d8907be	0.0669093
245	0xbda02e9c	-0.0782139
246	0x3db6aa2b	0.08919176
247	0x3db24022	0.087036386
248	0xbdcea56a	-0.10090144
249	0xbdbcec21	-0.092247255
250	0xbde0d7ab	-0.109786354
251	0x3dbcf742	0.09226848
252	0xbdc1ead6	-0.094686195
253	0xbdcb45ab	-0.099253975
254	0xbdc3ac92	-0.095543995
255	0xbdbe6bb3	-0.09297886

attention_pooling.gate_nn.weight f4 [1, 4]
0	0xbcfc2a11	-0.030781778
1	0xbc8b08a8	-0.016971901
2	0xbc8a3a3e	-0.016873475
3	0xbc6192a4	-0.013767872

final_scorer.weight f4 [1, 8]
0	0xbf496e08	-0.7868352
1	0xbf0c432e	-0.5479001
2	0xbf22603a	-0.6342808
3	0xbf74deb7	-0.95652336
4	0x3e6f1fe5	0.2335201
5	0x3e810611	0.2519994
6	0x3ea051f9	0.3131254
7	0x3e16cadf	0.14725827
