demo/FinalModel_OnlineBoutique.pt (torch, 15899 bytes, 11 tensors)

intermediate.root f4 [14, 20]
0	0x3c594c4a	0.013262818
1	0x3ca7cfc4	0.020484813
2	0xbc6d50a9	-0.014484563
3	0xbc8b785f	-0.01702517
4	0x3c89de09	0.016829507
5	0xbc7c43e6	-0.015397048
6	0x3c967f25	0.018371174
7	0xbc3004bb	-0.010743315
8	0xbc606999	-0.013697051
9	0xbc386686	-0.011254912
10	0xbc8f262b	-0.017474255
11	0xbc874982	-0.016514543
12	0xbc903032	-0.017601106
13	0xbc957def	-0.018248526
14	0x3c26645a	0.010155762
15	0xbc3bc3c9	-0.011460253
16	0x3c8ed2d0	0.017434508
17	0x3ca236be	0.019801494
18	0x3c576890	0.013147488
19	0x3cbd4851	0.023105772
20	0x3d18217f	0.03714132
21	0x3d55a47d	0.05215882
22	0xbd394ead	-0.045241047
23	0xbd029760	-0.031882644
24	0x3d3fe6c9	0.046850953
25	0xbd4e2891	-0.050331656
26	0x3d44d715	0.04805668
27	0xbcfb4c9a	-0.030676175
28	0xbd1d8118	-0.03845319
29	0xbd3bafce	-0.045821957
30	0xbd3ace14	-0.045606688
31	0xbd5ede7d	-0.0544114
32	0xbd4136c0	-0.047171354
33	0xbd63c456	-0.055607162
34	0x3d1827a4	0.03714718
35	0xbd40bd5a	-0.04705558
36	0x3d2e14a7	0.042500164
37	0x3d6ab100	0.057297707
38	0x3d2ab061	0.041672114
39	0x3d3812f2	0.044939943
40	0x3b69f410	0.003569845
41	0xbae61d76	-0.0017556387
42	0xbc0d40c8	-0.008621402
43	0x3bb41679	0.005495843
44	0xbb2e6f63	-0.0026616685
45	0xb89e3e7c	-7.545666e-05
46	0x3ad22e1a	0.0016035468
47	0xbc3cad33	-0.011515903
48	0xba9f9251	-0.0012174343
49	0x3c3d2897	0.011545322
50	0xbaf3da1f	-0.0018604434
51	0xbb68b623	-0.0035508953
52	0x3b89ae87	0.0042017135
53	0x3b2a43cf	0.0025980358
54	0xbb9393ac	-0.004503688
55	0x3a751495	0.0009349075
56	0xbb2de300	-0.0026533008
57	0x3ad3ff24	0.001617406
58	0x3b0160ff	0.0019741652
59	0x3b4effb9	0.0031585528
60	0x3d6e5c21	0.05819333
61	0x3d74bc33	0.059749793
62	0xbd81ceaa	-0.06338246
63	0xbd3da940	-0.046303988
64	0x3d715008	0.058914214
65	0xbd830890	-0.063981175
66	0x3d7c3388	0.06157258
67	0xbd512749	-0.051062856
68	0xbd59967c	-0.05312203
69	0xbd288f1b	-0.0411521
70	0xbd73fc83	-0.059566986
71	0xbd89872a	-0.067152336
72	0xbd67016e	-0.056397848
73	0xbd83fac0	-0.06444311
74	0x3d1cb7f5	0.038261373
75	0xbd6a5f18	-0.057219595
76	0x3d4f9d89	0.050687347
77	0x3d898448	0.06714684
78	0x3d5f41d8	0.054506153
79	0x3d6c8a7e	0.057749264
80	0x3b020461	0.0019839036
81	0x3b22baca	0.0024830573
82	0x3adbbc8e	0.0016764568
83	0x3af23c82	0.0018481167
84	0x3b5467ff	0.003241062
85	0xbb4ba93b	-0.003107621
86	0xba84aec5	-0.0010122886
87	0x3bbecbc3	0.00582263
88	0x3b73a0c0	0.0037174672
89	0xbad74070	-0.0016422402
90	0xba86b879	-0.0010278366
91	0x39b21acf	0.0003397078
92	0xbaa2b69a	-0.0012414039
93	0x3b4e0e42	0.0031441604
94	0xbb49809c	-0.0030746823
95	0xbb2c594d	-0.0026298345
96	0xbb363408	-0.002780201
97	0x395dff8e	0.00021171404
98	0xbb1aed6f	-0.0023640057
99	0x3aa5c31b	0.0012646647
100	0x3c01accd	0.007914734
101	0x3c643297	0.013928077
102	0xbc02d539	-0.007985407
103	0xbc43b959	-0.011946046
104	0x3c2d24f2	0.0105678905
105	0xbc12fbb6	-0.008971145
106	0x3c5a0dd9	0.013308966
107	0xbb962161	-0.004581616
108	0xbc0a3cf0	-0.00843738
109	0xbbe7928e	-0.007067031
110	0xbc5ccdd7	-0.01347681
111	0xbc17e8f2	-0.009271847
112	0xbc427f8f	-0.011871233
113	0xbc6e82ae	-0.014557524
114	0x3b9f4195	0.004860113
115	0xbbe06411	-0.0068478663
116	0x3c55125f	0.013004868
117	0x3c667b53	0.014067489
118	0x3c0465e3	0.008080932
119	0x3c8a5ef0	0.016890973
120	0x3c401dd2	0.01172586
121	0x3ca893a7	0.020578219
122	0xbc98f5a0	-0.01867181
123	0xbc07063a	-0.008241231
124	0x3c42dace	0.011892987
125	0xbc660596	-0.014039418
126	0x3c983482	0.018579725
127	0xbc750701	-0.014955283
128	0xbc4aae74	-0.012370694
129	0xbb2bdba2	-0.002622344
130	0xbc9ef266	-0.019402694
131	0xbca88305	-0.020570287
132	0xbc5b9b52	-0.0134037305
133	0xbcc4f561	-0.024042787
134	0x3bf1abb4	0.007375205
135	0xbc8651db	-0.016396454
136	0x3c2dd41c	0.010609653
137	0x3cb213f0	0.021738023
138	0x3c59f614	0.0133032985
139	0x3c2990ec	0.0103494935
140	0x3ccdb761	0.025111856
141	0x3cd587b6	0.026065689
142	0xbcdb9d64	-0.026808448
143	0xbc4db8f7	-0.012556306
144	0x3c425fad	0.011863631
145	0xbcfd98f2	-0.03095672
146	0x3c9463ca	0.01811399
147	0xbc92645f	-0.017870126
148	0xbca05df1	-0.019576045
149	0xbc6ccaa7	-0.014452613
150	0xbcd62934	-0.026142694
151	0xbc85119c	-0.016243748
152	0xbcd33c60	-0.025785625
153	0xbca973f8	-0.020685181
154	0x3c7469f1	0.0149178365
155	0xbcd3443a	-0.025789369
156	0x3cc6c725	0.024264881
157	0x3ce3745c	0.027765445
158	0x3caf6bef	0.021413771
159	0x3cc0bb6e	0.023526873
160	0x3c878a74	0.016545512
161	0x3c2ed73e	0.010671435
162	0xbc8768fc	-0.016529553
163	0xbbeb62ea	-0.0071834223
164	0x3c9d25d1	0.019183071
165	0xbc9640ed	-0.018341506
166	0x3c7514d9	0.014958584
167	0xbc4bb6ea	-0.012433747
168	0xbc411ddf	-0.011786907
169	0xbc43f009	-0.011959084
170	0xbbdfe451	-0.0068326374
171	0xbc921364	-0.017831512
172	0xbc877319	-0.016534375
173	0xbc6efbf4	-0.0145864375
174	0x3c37f59c	0.011227991
175	0xbc1941c6	-0.0093540605
176	0x3c32806a	0.010894874
177	0x3c854979	0.016270386
178	0x3caa85a2	0.020815674
179	0x3c896294	0.016770639
180	0x3d6f85ba	0.05847714
181	0x3d72c2d9	0.059267852
182	0xbd860376	-0.06543629
183	0xbd3fe719	-0.04685125
184	0x3d7598c7	0.059960153
185	0xbd840c76	-0.06447689
186	0x3d8030e7	0.062593274
187	0xbd51bcd8	-0.051205486
188	0xbd5a8db8	-0.05335781
189	0xbd2c9c1f	-0.042141076
190	0xbd764ec8	-0.060133725
191	0xbd89f946	-0.06736998
192	0xbd6628df	-0.05619132
193	0xbd85d8ac	-0.065354675
194	0x3d1d339f	0.038379308
195	0xbd6a87ce	-0.05725842
196	0x3d4fcff1	0.050735418
197	0x3d89de27	0.06731825
198	0x3d5f830f	0.054568347
199	0x3d6cd6b5	0.057821948
200	0x3d50a552	0.05093891
201	0x3d36f454	0.044666603
202	0xbd61062e	-0.054937534
203	0xbd0adad8	-0.033900112
204	0x3d3fe04c	0.046844766
205	0xbd3825c9	-0.04495791
206	0x3d3c1193	0.045915198
207	0xbd48ed3d	-0.049054373
208	0xbd246111	-0.040131632
209	0xbcdfc3d3	-0.027315056
210	0xbd15e638	-0.036596507
211	0xbd70632c	-0.058688328
212	0xbd40fa56	-0.04711374
213	0xbd0b00a2	-0.03393615
214	0x3cf76d54	0.030203499
215	0xbd24cb24	-0.040232792
216	0x3d224e80	0.039625645
217	0x3d5b957c	0.053609356
218	0x3d51aed0	0.051192105
219	0x3d4e904f	0.050430592
220	0xbb6a5b31	-0.003575992
221	0xbb9583d7	-0.0045628357
222	0x3c1d716a	0.00960956
223	0x3bfc4bcc	0.0076994654
224	0xbb45606b	-0.0030117284
225	0x3b66f9b6	0.0035244054
226	0xbbf5b4af	-0.007498346
227	0x3c474769	0.012163022
228	0x3c1cb5fe	0.009564875
229	0x3b25b22e	0.0025283205
230	0x3b786988	0.0037904698
231	0x3c02d8e3	0.00798628
232	0x3b9f1e7a	0.004855928
233	0x3c12cd0e	0.008960022
234	0xbc062165	-0.008186673
235	0x3ae9528c	0.001780109
236	0xbc079de6	-0.008277392
237	0xbbd86650	-0.0066039935
238	0xbc02d27f	-0.0079847565
239	0xbbc43fc0	-0.005989045
240	0x3d181601	0.03713036
241	0x3d55a48d	0.05215888
242	0xbd394e2a	-0.04524056
243	0xbd029535	-0.031880576
244	0x3d3fe8e9	0.04685298
245	0xbd4e2f1a	-0.05033789
246	0x3d44d721	0.048056725
247	0xbcfb4f05	-0.030677328
248	0xbd1d7ebb	-0.038450938
249	0xbd3bb98d	-0.045831252
250	0xbd3ace83	-0.0456071
251	0xbd5edcae	-0.054409675
252	0xbd41361c	-0.047170743
253	0xbd63c458	-0.05560717
254	0x3d182638	0.037145823
255	0xbd40bd94	-0.047055796

intermediate.bias f4 [20]
0	0x3d6f8c3f	0.05848336
1	0x3d72c678	0.059271306
2	0xbd860382	-0.06543638
3	0xbd3fdb56	-0.046840034
4	0x3d759857	0.059959736
5	0xbd8404c5	-0.06446222
6	0x3d802f4e	0.06259023
7	0xbd51bcf5	-0.051205594
8	0xbd5a8d90	-0.05335766
9	0xbd2c99b4	-0.04213877
10	0xbd764eb7	-0.060133662
11	0xbd8a0248	-0.06738716
12	0xbd66209e	-0.05618345
13	0xbd85d8c2	-0.06535484
14	0x3d1d3360	0.038379073
15	0xbd6a7f34	-0.057250217
16	0x3d4fcfd9	0.05073533
17	0x3d89de40	0.06731844
18	0x3d5f98d3	0.054589104
19	0x3d6cd686	0.057821773

intermediate.nn.weight f4 [280, 7]
0	0x3d443129	0.047898445
1	0x3d6ec279	0.058290932
2	0x3d27a2f2	0.04092688
3	0x3d70c021	0.05877698
4	0x3d85fcba	0.065423444
5	0x3d58d35c	0.052935943
6	0xbcd3189e	-0.025768574
7	0x3d65a5e5	0.056066412
8	0x3d8f7b27	0.07005911
9	0x3d35b85d	0.044365276
10	0x3d8f6a5f	0.070027106
11	0x3da256fe	0.07926749
12	0x3d82fb41	0.06395579
13	0xbce173ca	-0.027521033
14	0xbd5522db	-0.052035194
15	0xbd88ff1e	-0.06689285
16	0xbd635502	-0.05550099
17	0xbd89fcf5	-0.06737701
18	0xbda0afd5	-0.07846037
19	0xbd790384	-0.06079437
20	0x3d15ad3a	0.036542155
21	0xbd3115f6	-0.043233834
22	0xbd6186a8	-0.05506006
23	0xbd060483	-0.032719146
24	0xbd65c522	-0.056096204
25	0xbd837e17	-0.06420534
26	0xbd516418	-0.051120847
27	0x3cb821c6	0.022477042
28	0x3d333386	0.04375031
29	0x3d60b9d2	0.054864712
30	0x3d21aff1	0.03947443
31	0x3d636147	0.055512693
32	0x3d8050ce	0.06265412
33	0x3d4c9802	0.049949653
34	0xbcc6cca9	-0.024267511
35	0xbd3192c0	-0.043352842
36	0xbd67789b	-0.056511503
37	0xbd334314	-0.043765143
38	0xbd65a136	-0.056061946
39	0xbd85804b	-0.065186106
40	0xbd4ca230	-0.04995936
41	0x3cb8e546	0.022570264
42	0x3d1e4d6a	0.038648047
43	0x3d5b8cc3	0.053601038
44	0x3d260945	0.040536184
45	0x3d5c5c7b	0.053799134
46	0x3d863220	0.06552529
47	0x3d44bac5	0.04802968
48	0xbccc81d9	-0.02496426
49	0xbd1cc351	-0.038272206
50	0xbd59110b	-0.05299477
51	0xbd1ce5fb	-0.038305264
52	0xbd5e1144	-0.054215685
53	0xbd851e27	-0.06499892
54	0xbd46ee05	-0.048566837
55	0x3cd80c98	0.026373193
56	0xbd1f45b6	-0.03888484
57	0xbd55e248	-0.05221775
58	0xbd2abe45	-0.04168536
59	0xbd556bf0	-0.05210489
60	0xbd8034b3	-0.062600516
61	0xbd3f7ede	-0.04675185
62	0x3ccd0ddb	0.02503102
63	0xbd448857	-0.047981586
64	0xbd754cdc	-0.059887752
65	0xbd13b9f2	-0.036066003
66	0xbd78af26	-0.06071391
67	0xbd8c10ee	-0.068391666
68	0xbd639177	-0.055558648
69	0x3cc49ece	0.024001505
70	0xbd3f1444	-0.046650186
71	0xbd734e91	-0.0594011
72	0xbd49d538	-0.049275607
73	0xbd78f96a	-0.060784735
74	0xbd8b68d3	-0.06807103
75	0xbd614a83	-0.0550027
76	0x3cf3c81f	0.029758511
77	0xbd423967	-0.047418024
78	0xbd8131a7	-0.063082986
79	0xbd3e0fe0	-0.04640186
80	0xbd7fd227	-0.062456276
81	0xbd9b4626	-0.07581739
82	0xbd64df98	-0.055877298
83	0x3cf5c1d3	0.02999965
84	0xbd515afc	-0.05111216
85	0xbd84a987	-0.06477647
86	0xbd52a97e	-0.05143117
87	0xbd870dbe	-0.06594418
88	0xbd99920f	-0.074985616
89	0xbd731a89	-0.059351478
90	0x3d014175	0.031556565
91	0xbd3c2ec2	-0.04594303
92	0xbd7d04db	-0.06177221
93	0xbd41ca04	-0.047311798
94	0xbd7f37e2	-0.062309153
95	0xbd985f4f	-0.07440054
96	0xbd66c9be	-0.05634474
97	0x3d00af8d	0.03141742
98	0x3d158bed	0.036510397
99	0x3d3553fa	0.04426954
100	0x3cc3c1ab	0.023896059
101	0x3d3562be	0.04428362
102	0x3d483bf7	0.048885312
103	0x3d259844	0.040428415
104	0xbc880fa5	-0.016609022
105	0xbd34747a	-0.044056393
106	0xbd64c51d	-0.055852044
107	0xbd10563f	-0.0352385
108	0xbd69cda4	-0.05708088
109	0xbd83ddfb	-0.06438824
110	0xbd55208f	-0.052033003
111	0x3cc3ecfe	0.023916718
112	0x3d54d9b5	0.051965434
113	0x3d81aef7	0.063322
114	0x3d2f9b30	0.042872608
115	0x3d810d5d	0.06301377
116	0x3d905d54	0.07049051
117	0x3d6c03f5	0.05762096
118	0xbcd86ea2	-0.026419941
119	0x3d8e32aa	0.06943257
120	0x3daf4103	0.08557322
121	0x3d77f920	0.06054032
122	0x3daf51dc	0.08560535
123	0x3dc69d20	0.09697938
124	0x3da097af	0.07841431
125	0xbd1c28d8	-0.03812489
126	0x3d343e11	0.044004504
127	0x3d67e4de	0.05661475
128	0x3d2cd033	0.04219074
129	0x3d689705	0.05678465
130	0x3d85c104	0.065309554
131	0x3d50e7cc	0.05100231
132	0xbcce4808	-0.025180832
133	0x3d63d996	0.055627428
134	0x3d9003d6	0.07031982
135	0x3d2b46e2	0.041815646
136	0x3d8f5ce4	0.07000139
137	0x3da7a757	0.081862144
138	0x3d82877a	0.06373496
139	0xbceea0d6	-0.029129427
140	0xbd186a9d	-0.03721105
141	0xbccaf384	-0.02477432
142	0xbcadfff0	-0.021240205
143	0xbc9567c2	-0.018237952
144	0xbccccec9	-0.025000947
145	0xbc6e3de7	-0.014541126
146	0xbcafab09	-0.02144386
147	0xbca15110	-0.019691974
148	0xbc9f1df6	-0.019423466
149	0xbcb89812	-0.02253345
150	0xbbbd6abe	-0.005780547
151	0xbd127242	-0.035753496
152	0xbb7ec94a	-0.0038877302
153	0xbc4a77fc	-0.012357708
154	0x3d231d08	0.03982261
155	0x3cdd8802	0.027042393
156	0x3cdfd5ac	0.027323566
157	0x3c451087	0.012027866
158	0x3cd4dd4e	0.025984433
159	0x3c3d3ab7	0.011549643
160	0x3c9dc576	0.019259196
161	0x3cb38183	0.021912342
162	0x3cdbca67	0.026829911
163	0x3cfafcac	0.030638061
164	0x3c92f8ec	0.01794096
165	0x3d1227d3	0.03568251
166	0x3c673a08	0.014112957
167	0x3bc9f272	0.006162935
168	0xbd13c7d0	-0.036079228
169	0xbcfade2c	-0.030623518
170	0xbd06f0f2	-0.032944627
171	0xbccb587a	-0.024822462
172	0xbd06a4e9	-0.032872114
173	0xbcbf6eb1	-0.023368211
174	0xbc8b9a09	-0.017041223
175	0x3d067f57	0.032836284
176	0x3c8cc6e4	0.017184682
177	0x3c84dd75	0.01621888
178	0x3b683672	0.0035432843
179	0x3cbc8966	0.023014735
180	0x3b37a9ab	0.0028024714
181	0x3cb73b31	0.022367092
182	0xbd2e7043	-0.04258753
183	0xbd02978a	-0.0318828
184	0xbd095cc1	-0.033535723
185	0xbcacb9fb	-0.021084776
186	0xbd0e0e5e	-0.03468167
187	0xbc8c85bb	-0.017153611
188	0xbcaba54a	-0.02095284
189	0x3d121486	0.035664104
190	0x3d056148	0.032563478
191	0x3cf18fe9	0.029487567
192	0x3cd41e60	0.02589339
193	0x3d0220be	0.031769507
194	0x3cb6acd7	0.022299213
195	0x3c768146	0.01504547
196	0x3cee55f1	0.029093714
197	0x3ce90992	0.028446946
198	0x3d08047d	0.033207405
199	0x3ca74bfd	0.020421976
200	0x3cd2fe19	0.025755929
201	0x3c71252d	0.014718336
202	0x3c8aa06a	0.016922195
203	0x3d12cc0f	0.035839137
204	0x3cee7c68	0.029112056
205	0x3ccda45c	0.025102787
206	0x3c97bf71	0.018523904
207	0x3cef9779	0.029247032
208	0x3c8248d3	0.015903866
209	0x3c0548f2	0.008135067
210	0x3cf6c256	0.030121963
211	0x3cbb6e4c	0.022879742
212	0x3ce1a25f	0.027543245
213	0x3c6902b3	0.014221835
214	0x3d14d307	0.036334064
215	0x3c0cf8c6	0.008604234
216	0x3c895714	0.016765155
217	0x3d3d07c1	0.046149973
218	0x3cfb4c04	0.030675896
219	0x3d085425	0.03328337
220	0x3c99d16b	0.018776616
221	0x3d0459f2	0.03231234
222	0x3c8db0b6	0.017296176
223	0x3c9d8c4e	0.019231942
224	0x3d07930a	0.03309921
225	0x3cb8f8b8	0.022579536
226	0x3cb224a5	0.02174599
227	0x3c4364ec	0.011925917
228	0x3d08bce3	0.03338326
229	0x3c081063	0.008304688
230	0x3cbd3ee0	0.02310127
231	0x3d0670d2	0.032822438
232	0x3cc304a8	0.023805931
233	0x3cc92029	0.024551468
234	0x3c7d3d96	0.015456578
235	0x3d271ae3	0.040797126
236	0x3c2d09f8	0.010561459
237	0x3cc00249	0.02343859
238	0xbce05e25	-0.027388642
239	0xbc90e428	-0.017686918
240	0xbc923265	-0.017846296
241	0xbc67aabe	-0.014139829
242	0xbc85f2ce	-0.01635113
243	0xbc30d448	-0.010792799
244	0xbc97359b	-0.018458178
245	0x3cf61473	0.030039048
246	0x3ced1062	0.028938476
247	0x3ce0a61c	0.027422957
248	0x3c959216	0.018258136
249	0x3d0eeec3	0.03489567
250	0x3c64db6d	0.013968331
251	0x3c36d51a	0.011159206
252	0xbcc5fb5d	-0.02416771
253	0xbcd22534	-0.025652505
254	0xbccc048e	-0.024904516
255	0xbc7ecd5e	-0.015551893

intermediate.nn.bias f4 [280]
0	0x3cf6faf1	0.030148955
1	0x3d1e509d	0.038651098
2	0xbd163573	-0.036672067
3	0xbd005c37	-0.031337943
4	0x3cfa2e76	0.030539732
5	0xbce9bad2	-0.028531466
6	0x3ce0d834	0.027446844
7	0xbcf02529	-0.029314594
8	0xbce93775	-0.028468827
9	0xbd1383c3	-0.03601433
10	0xbcff4b0a	-0.031163711
11	0xbd11b650	-0.035574257
12	0xbd0c83ce	-0.034305386
13	0xbd154340	-0.036441088
14	0x3cc253d4	0.023721613
15	0xbd0adf8c	-0.033904597
16	0x3d12838d	0.035769988
17	0x3d496e20	0.04917729
18	0x3cdf5121	0.027260365
19	0x3d246c26	0.0401422
20	0x3d0cc9f4	0.034372285
21	0x3ce52064	0.027969547
22	0xbd084a5f	-0.03327405
23	0xbc918d76	-0.01776765
24	0x3cf5cf68	0.030006126
25	0xbd1a5e99	-0.03768787
26	0x3cc23e70	0.023711413
27	0xbcb6ddbb	-0.022322526
28	0xbcc2f724	-0.023799486
29	0xbcb3dd26	-0.021956038
30	0xbcdc0e8d	-0.026862407
31	0xbd08eb8e	-0.033427767
32	0xbd034b19	-0.03205404
33	0xbcd0fb2d	-0.025510395
34	0x3cac31c7	0.02101983
35	0xbcd9249d	-0.026506716
36	0x3cd54491	0.026033672
37	0x3d106cc2	0.03525997
38	0x3d0e1bf6	0.034694634
39	0x3cd5b7e4	0.026088662
40	0xbbc65dc3	-0.0060536577
41	0x3a67173d	0.00088154135
42	0x3a04818c	0.00050547044
43	0x3bf4b0e2	0.007467375
44	0xbb6fc7fe	-0.003658771
45	0x3a7dd2c2	0.00096825894
46	0x3bc6678a	0.0060548233
47	0xbaa2ccd7	-0.0012420666
48	0x3b025734	0.0019888403
49	0x3c5aa253	0.013344365
50	0xb9a0ed24	-0.00030694262
51	0xba4d3d60	-0.0007829275
52	0x3bd5dcdb	0.006526572
53	0xbbef8f0a	-0.0073107528
54	0xbb857d91	-0.0040738066
55	0xbb0f0b2f	-0.0021826734
56	0xbb9c77f8	-0.0047750436
57	0xbb4e697e	-0.0031495984
58	0xbb0e18b2	-0.00216822
59	0xbbbeb918	-0.0058204047
60	0x3d52abd5	0.051433403
61	0x3d53bf73	0.051696252
62	0xbd69b8a3	-0.05706085
63	0xbd21a7b4	-0.039466575
64	0x3d5718cb	0.05251388
65	0xbd67fac7	-0.056635644
66	0x3d610c44	0.054943338
67	0xbd323d96	-0.043515764
68	0xbd3b0568	-0.045659453
69	0xbd0fe0fb	-0.035126667
70	0xbd576848	-0.052589685
71	0xbd6b6922	-0.05747331
72	0xbd4612f4	-0.04835792
73	0xbd67fae5	-0.056635756
74	0x3d0a189a	0.033714868
75	0xbd4e31ef	-0.05034059
76	0x3d30f88d	0.043205786
77	0x3d6eefc3	0.058334123
78	0x3d41986a	0.047264494
79	0x3d4b052a	0.04956547
80	0x3bbfc959	0.00585286
81	0x3c4ca3ba	0.012490207
82	0xbc1f5e4f	-0.009727075
83	0xbbe57c7d	-0.0070033656
84	0x3c0bf3fd	0.008542058
85	0xbbfd54e8	-0.007731069
86	0x3bdd8500	0.0067602396
87	0xbbf40798	-0.0074471943
88	0xbc44135d	-0.011967507
89	0xbbf99a2d	-0.007617256
90	0xbc0db4f9	-0.008649104
91	0xbc2a64dd	-0.010400024
92	0xbc470724	-0.012147699
93	0xbc3e076a	-0.011598447
94	0x3b8ed5e2	0.004358993
95	0xbba1241d	-0.004917635
96	0x3bf78e79	0.007554826
97	0x3c3f200d	0.011665356
98	0x3c1801a4	0.009277735
99	0x3c52f761	0.012876363
100	0x3cc1b004	0.023643501
101	0x3ce634fd	0.028101439
102	0xbccf4e9a	-0.025306035
103	0xbcc18b10	-0.02362588
104	0x3cb2d58f	0.021830348
105	0xbca93c82	-0.020658735
106	0x3c872a03	0.016499525
107	0xbc97b808	-0.01852037
108	0xbc93a260	-0.018021762
109	0xbce15e0b	-0.027510663
110	0xbcb3ca6d	-0.02194711
111	0xbcb50971	-0.022099229
112	0xbcbcb9bf	-0.02303779
113	0xbcc60192	-0.02417067
114	0x3c9bcb35	0.019017795
115	0xbcdb323b	-0.02675735
116	0x3cd82dd4	0.02638904
117	0x3d17cb62	0.037059195
118	0x3c8ccee4	0.017188497
119	0x3ce85d11	0.02836469
120	0xbb045726	-0.0020193546
121	0xbbf28421	-0.007401005
122	0xbb2b0101	-0.0026093128
123	0x3c0c29d1	0.008554892
124	0xbc112be1	-0.008860559
125	0x3ba835a8	0.0051333494
126	0xbb7b7236	-0.0038367636
127	0xbb9cd2bf	-0.004785865
128	0x3ab81754	0.0014045038
129	0x3c673c92	0.014113562
130	0x3a9d5ee8	0.0012006434
131	0x3afecf6e	0.0019440481
132	0x3c336952	0.010950403
133	0x3c341920	0.010992318
134	0xbc0b3454	-0.008496363
135	0x3bd23588	0.006415073
136	0xbba20138	-0.004943993
137	0xbb37c346	-0.0028039976
138	0xbb7b5dbf	-0.0038355438
139	0xbb5d6365	-0.0033781168
140	0x3d010b32	0.031504817
141	0x3d185a07	0.03719523
142	0xbcc53bdb	-0.024076393
143	0xbcb99d52	-0.022658024
144	0x3d11cff4	0.03559871
145	0xbcd70546	-0.026247632
146	0x3d12d48c	0.03584723
147	0xbc96911b	-0.018379739
148	0xbcb4aa62	-0.022053901
149	0xbcde2f2c	-0.027122103
150	0xbcf3978d	-0.029735351
151	0xbd0f9d9b	-0.035062414
152	0xbcd575ac	-0.026057087
153	0xbd0aefb1	-0.033919994
154	0x3cbf8af0	0.02338168
155	0xbd0250db	-0.03181539
156	0x3cab57f9	0.020915972
157	0x3cdb8342	0.026795987
158	0x3cea0073	0.028564667
159	0x3cd7f6c7	0.02636279
160	0x3a8fea7c	0.0010979916
161	0x3c3a5635	0.011373092
162	0xbc70cfa5	-0.014697944
163	0xbb97a57f	-0.004627883
164	0x3c18ee60	0.009334177
165	0xbc92856b	-0.017885884
166	0x3c802cbb	0.01564633
167	0xbc17821b	-0.009247328
168	0xbc222e63	-0.009898755
169	0xbc368c15	-0.011141797
170	0xbc17648e	-0.009240283
171	0xbc98bbc2	-0.018644217
172	0xbc90c896	-0.017673772
173	0xbcae44fc	-0.021273129
174	0x3c165346	0.009175127
175	0xbc2c956a	-0.01053367
176	0x3c2c0d85	0.01050127
177	0x3c857d5a	0.016295124
178	0x3c3d96e7	0.011571622
179	0x3c4cf221	0.0125089
180	0x3d6f8f02	0.058485992
181	0x3d72cefb	0.059279423
182	0xbd860362	-0.06543614
183	0xbd3fcd65	-0.04682674
184	0x3d7598a9	0.05996004
185	0xbd840c74	-0.06447688
186	0x3d803162	0.06259419
187	0xbd51bbb3	-0.051204395
188	0xbd5a908d	-0.05336051
189	0xbd2c9e6c	-0.04214327
190	0xbd764f39	-0.060134146
191	0xbd8a0b71	-0.067404635
192	0xbd663313	-0.056201052
193	0xbd85d84d	-0.06535397
194	0x3d1d3454	0.038379982
195	0xbd6a85f8	-0.05725667
196	0x3d4fcfef	0.05073541
197	0x3d89de4a	0.067318514
198	0x3d5f93dc	0.05458437
199	0x3d6cd700	0.057822227
200	0x3d42e97e	0.047585957
201	0x3d61468f	0.05499893
202	0xbd5ac731	-0.05341262
203	0xbd2e90d0	-0.042618573
204	0x3d4685e7	0.048467543
205	0xbd7a625e	-0.061128967
206	0x3d73b8aa	0.05950228
207	0xbd25fa42	-0.040521868
208	0xbd381164	-0.04493846
209	0xbd319f9f	-0.043365117
210	0xbd749bbe	-0.05971884
211	0xbd651f18	-0.055937856
212	0xbd5cd98d	-0.05391841
213	0xbd90915a	-0.070589736
214	0x3d006eac	0.031355545
215	0xbd5940c6	-0.05304029
216	0x3d3db7db	0.046317916
217	0x3d69e0fa	0.05709932
218	0x3d325dad	0.043546367
219	0x3d4fd5c0	0.050740957
220	0xbb2fd977	-0.00268325
221	0xbb3e4816	-0.0029034666
222	0x3b732a34	0.0037104012
223	0x3b25cff6	0.0025300956
224	0xbb268eed	-0.002541478
225	0x3aace8a2	0.0013191889
226	0xbba9fae3	-0.0051873787
227	0x3bb0f2a2	0.005400018
228	0x36d98ce5	6.4835062e-06
229	0x3b9aa756	0.004719655
230	0x3ada0017	0.0016632107
231	0x3bbf17ec	0.005831709
232	0x3ac28bf8	0.0014842739
233	0x3b8bd969	0.0042678607
234	0xbb3ca6d1	-0.0028785954
235	0x3ba53b80	0.0050424933
236	0xba451ca3	-0.0007519221
237	0xbab6ea05	-0.0013955241
238	0xbb769097	-0.0037622803
239	0xbaee3871	-0.001817478
240	0x3d0cca01	0.034372333
241	0x3ce522d9	0.027970718
242	0xbd0849f5	-0.033273656
243	0xbc91a65e	-0.017779525
244	0x3cf5d461	0.030008497
245	0xbd1a6610	-0.03769499
246	0x3cc23350	0.023706108
247	0xbcb6de6b	-0.022322854
248	0xbcc305b4	-0.02380643
249	0xbcb3df4a	-0.021957058
250	0xbcdc0e53	-0.0268623
251	0xbd08eb6a	-0.033427633
252	0xbd034b30	-0.032054126
253	0xbcd0f9b7	-0.025509698
254	0x3cac316a	0.021019656
255	0xbcd9234a	-0.026506085

local_scorer.att_l f4 [1, 4, 4]
0	0xbe194fad	-0.149718
1	0x3e14ae31	0.14519574
2	0x3e097f8f	0.13427566
3	0xbcdc7ab8	-0.026913986
4	0xbe119feb	-0.1422116
5	0x3e0d1d68	0.13780749
6	0x3e02693e	0.12735459
7	0xbcf02498	-0.029314324
8	0xbe160ab6	-0.14652523
9	0x3e11dbba	0.14243975
10	0x3e077708	0.13229
11	0xbcf1ba96	-0.029507916
12	0xbe14ca4d	-0.14530297
13	0x3e0fa166	0.14026412
14	0x3e04ac76	0.12956414
15	0xbce15503	-0.027506357

local_scorer.att_r f4 [1, 4, 4]
0	0x3c82d14b	0.01596894
1	0xbc78a69b	-0.015176441
2	0xbc5c6bd4	-0.013453443
3	0xba6a61b4	-0.00089409505
4	0x3cc708ba	0.024296153
5	0xbcc20815	-0.023685494
6	0xbcb51467	-0.022104455
7	0x3c20acc1	0.009806813
8	0x3ceaed9b	0.028677752
9	0xbce56941	-0.02800429
10	0xbcd67845	-0.026180396
11	0x3c17f622	0.009274991
12	0x3c7f40a0	0.015579373
13	0xbc722d59	-0.01478132
14	0xbc577771	-0.013151036
15	0xb9231134	-0.000155513

local_scorer.bias f4 [4]
0	0xbe9d3a5e	-0.30708593
1	0x3e98fa1d	0.2987832
2	0x3e8cd8b9	0.27509096
3	0xbd6391d6	-0.055559002

local_scorer.lin_l.weight f4 [16, 20]
0	0xbdd0d5d9	-0.10197038
1	0xbde2d6dc	-0.110761374
2	0x3dd75b65	0.10515479
3	0x3dbe1ab8	0.0928244
4	0xbdcb85c1	-0.09937621
5	0x3dcd26c5	0.1001716
6	0xbde2836f	-0.11060225
7	0x3dcd044d	0.10010586
8	0x3dc00d38	0.09377521
9	0x3dac72b2	0.08420314
10	0x3dcd3f56	0.10021846
11	0x3df28107	0.11841016
12	0x3dd56881	0.10420323
13	0x3dd79233	0.10525932
14	0xbd7ea84d	-0.062172223
15	0x3dc3f6d0	0.0956856
16	0xbdbe0195	-0.092776455
17	0xbde6bf94	-0.112670094
18	0xbdaec6bd	-0.08534
19	0xbddfe9cd	-0.10933266
20	0x3dca0c15	0.09865586
21	0x3ddc1e67	0.10747986
22	0xbdcffef5	-0.10156051
23	0xbdb80bc9	-0.08986623
24	0x3dc49575	0.09598819
25	0xbdc60508	-0.096689284
26	0x3ddb6a1a	0.10713597
27	0xbdc74e5b	-0.09731742
28	0xbdba5bc2	-0.09099533
29	0xbda6b2a6	-0.08139543
30	0xbdc65a3f	-0.09685182
31	0xbdeb52f0	-0.114904284
32	0xbdcea6b6	-0.10090391
33	0xbdd03596	-0.10166471
34	0x3d75f805	0.060050983
35	0xbdbdb5da	-0.09263201
36	0x3db80bc8	0.08986622
37	0x3ddfa0dc	0.10919353
38	0x3da8c209	0.08240134
39	0x3dd91799	0.10600204
40	0x3db9e265	0.090763845
41	0x3dcb4d3d	0.099268414
42	0xbdbe2edc	-0.092862815
43	0xbda952f3	-0.082677744
44	0x3db41cd8	0.08794564
45	0xbdb5bf69	-0.08874399
46	0x3dc9fc1a	0.09862538
47	0xbdb8ec34	-0.09029427
48	0xbdabf84e	-0.0839697
49	0xbd98c71b	-0.07459851
50	0xbdb6901c	-0.089142054
51	0xbdd92540	-0.10602808
52	0xbdbe6b2d	-0.09297786
53	0xbdbea4ce	-0.09308778
54	0x3d61646b	0.055027407
55	0xbdae7d10	-0.085199475
56	0x3da98976	0.08278172
57	0x3dce8b8c	0.1008521
58	0x3d9ae7fb	0.07563778
59	0x3dc7ea69	0.09761507
60	0xbc986f2c	-0.018607698
61	0xbcaa2b7e	-0.020772692
62	0x3c73d6a5	0.014882718
63	0x3c886e1b	0.016654065
64	0xbc770859	-0.015077674
65	0x3c8619bc	0.016369693
66	0xbc8e2508	-0.017351642
67	0x3ca410b6	0.0200275
68	0x3c856ab5	0.016286233
69	0x3c3f6b15	0.011683245
70	0x3c8baa46	0.017048966
71	0x3cb51409	0.02210428
72	0x3c9fa210	0.019486457
73	0x3c5fd5f4	0.01366185
74	0xbc1d0fb4	-0.009586263
75	0x3c8dc6f0	0.017306775
76	0xbc8511ff	-0.016243933
77	0xbca3c6bc	-0.019992225
78	0xbc4d9b83	-0.012549284
79	0xbc859d9a	-0.016310502
80	0xbdcc229c	-0.09967539
81	0xbddca18a	-0.10772999
82	0x3de727b5	0.112868704
83	0x3dc0798d	0.09398184
84	0xbdd39da9	-0.10332806
85	0x3dcb89a0	0.09938359
86	0xbdcafd2b	-0.09911569
87	0x3dd4b74a	0.10386522
88	0x3dbd3a9d	0.09239695
89	0x3db1fb71	0.08690537
90	0x3dc47436	0.09592478
91	0x3dece609	0.11567313
92	0x3dd5e888	0.104447424
93	0x3dc73959	0.09727735
94	0xbd7dc16a	-0.061952032
95	0x3dcdee3b	0.100552045
96	0xbdb93f7d	-0.090453126
97	0xbdef0fc0	-0.11672926
98	0xbdb6931f	-0.0891478
99	0xbdd6b433	-0.10483589
100	0x3dc5a2c6	0.09650187
101	0x3dd5f83f	0.1044774
102	0xbddfd221	-0.10928751
103	0xbdba6724	-0.09101704
104	0x3dcc5bbe	0.09978436
105	0xbdc471b1	-0.095919974
106	0x3dc45410	0.09586346
107	0xbdcec405	-0.100959815
108	0xbdb72c8f	-0.08944046
109	0xbdac1f34	-0.08404389
110	0xbdbdd108	-0.09268385
111	0xbde58720	-0.11207414
112	0xbdcf08b3	-0.10109081
113	0xbdc06225	-0.093937196
114	0x3d75df0f	0.06002718
115	0xbdc7a002	-0.09747316
116	0x3db3768d	0.08762846
117	0x3de8130a	0.113317564
118	0x3db07e16	0.08617799
119	0x3dd01fa5	0.10162286
120	0x3db60a9a	0.08888741
121	0x3dc571d8	0.096408546
122	0xbdcddca4	-0.100518495
123	0xbdabb772	-0.08384599
124	0x3dbb2e4e	0.09139691
125	0xbdb47cb0	-0.08812845
126	0x3db48e91	0.08816255
127	0xbdbf7da0	-0.09350133
128	0xbda876e2	-0.082258
129	0xbd9df6fb	-0.077131234
130	0xbdaec5c4	-0.085338145
131	0xbdd32cfa	-0.10311313
132	0xbdbec9db	-0.093158446
133	0xbdaff130	-0.08590925
134	0x3d62ea70	0.05539936
135	0xbdb806bd	-0.0898566
136	0x3da57091	0.08078111
137	0x3dd71b33	0.10503235
138	0x3da25b08	0.07927519
139	0x3dbfaaa2	0.093587175
140	0xbc8a2512	-0.01686338
141	0xbca4ed77	-0.020132763
142	0x3c836066	0.016037177
143	0x3c83d8da	0.016094614
144	0xbc4cbf68	-0.012496807
145	0x3c7991f8	0.015232556
146	0xbc5daf02	-0.013530495
147	0x3c9371e5	0.017998645
148	0x3c54dfeb	0.012992839
149	0x3c44125e	0.01196727
150	0x3c7e0a48	0.015505381
151	0x3c951f7e	0.018203493
152	0x3c947674	0.01812289
153	0x3c1cffe4	0.009582493
154	0xbc30fe47	-0.010802812
155	0x3c8c8569	0.017153459
156	0xbc615ec6	-0.013755506
157	0xbccc0184	-0.024903066
158	0xbc5e5b35	-0.01357155
159	0xbc6cf32f	-0.014462276
160	0xbdc2459b	-0.094859324
161	0xbde63e04	-0.11242297
162	0x3dd53a65	0.104115285
163	0x3dbb6ea3	0.09151962
164	0xbdc32604	-0.09528735
165	0x3dc271c6	0.09494357
166	0xbdd6aba0	-0.104819536
167	0x3dd0ae9a	0.101895526
168	0x3dc1e565	0.09467582
169	0x3dcadf29	0.09905846
170	0x3dc3ffce	0.09570275
171	0x3df02dff	0.11727523
172	0x3dd82cba	0.10555406
173	0x3dd91861	0.10600353
174	0xbd8d0614	-0.06885925
175	0x3dbec700	0.093153
176	0xbdc1e949	-0.09468324
177	0xbdf3dc05	-0.119072
178	0xbdaff11d	-0.085909106
179	0xbddcff08	-0.10790831
180	0x3dbbbda7	0.09167033
181	0x3de01fb6	0.109435484
182	0xbdce3559	-0.10068769
183	0xbdb5b54f	-0.088724725
184	0x3dbc74c1	0.092019565
185	0xbdbb8769	-0.09156687
186	0x3dd04b2f	0.1017059
187	0xbdcabd9d	-0.09899447
188	0xbdbc3c96	-0.09191243
189	0xbdc4ede9	-0.0961569
190	0xbdbdc71b	-0.09266492
191	0xbde8e853	-0.11372437
192	0xbdd15f7b	-0.102232896
193	0xbdd2070b	-0.102552496
194	0x3d88ac78	0.06673521
195	0xbdb86df9	-0.090053506
196	0x3dbc2392	0.09186472
197	0x3decd9fe	0.11565016
198	0x3daa4eda	0.08315821
199	0x3dd64aac	0.10463461
200	0x3dac7d4a	0.084223345
201	0x3dcf9aa3	0.101369165
202	0xbdbd28e6	-0.092363164
203	0xbda78f1c	-0.08181593
204	0x3dac9d4f	0.08428442
205	0xbdac55c4	-0.08414796
206	0x3dc00483	0.093758605
207	0xbdbba3cf	-0.091621034
208	0xbdadda10	-0.08488858
209	0xbdb5d635	-0.088787474
210	0xbdaf2802	-0.08552553
211	0xbdd6a215	-0.104801334
212	0xbdc0fc0e	-0.094230756
213	0xbdc0dc7c	-0.09417054
214	0x3d7c3dde	0.06158244
215	0xbda95b05	-0.08269314
216	0x3dadd877	0.08488553
217	0x3ddb964a	0.10722025
218	0x3d9ce3aa	0.07660611
219	0x3dc559d3	0.09636273
220	0xbc69a4dc	-0.014260497
221	0xbcc9c6f3	-0.024631
222	0x3c741857	0.014898381
223	0x3c917585	0.017756233
224	0xbc4a2db3	-0.012339997
225	0x3c783e2a	0.01515154
226	0xbc870d00	-0.016485691
227	0x3c8939a4	0.016751118
228	0x3c8317d9	0.016002582
229	0x3c94841d	0.018129403
230	0x3c9844a6	0.018587422
231	0x3ca007ea	0.019535024
232	0x3c8eb128	0.017418459
233	0x3c743ea8	0.014907517
234	0xbc5706d5	-0.0131241875
235	0x3c706ffa	0.014675135
236	0xbc8de5b2	-0.017321441
237	0xbccf0e7a	-0.025275458
238	0xbc5f3137	-0.013622574
239	0xbc71c3a4	-0.014756117
240	0xbdd30f1a	-0.10305615
241	0xbdcf7480	-0.101296425
242	0x3dd3172a	0.103071526
243	0x3dc6098e	0.09669791
244	0xbdd6e788	-0.1049338
245	0x3dcc64dd	0.09980176
246	0xbddf5909	-0.10905654
247	0x3de37eea	0.11108191
248	0x3dd2a115	0.1028463
249	0x3db2faf9	0.087392755
250	0x3dc86761	0.09785343
251	0x3ddfd842	0.1092992
252	0x3de3064a	0.11085184
253	0x3de65c16	0.11248033
254	0xbd7f51a6	-0.062333725
255	0x3dc89b7c	0.09795281

local_scorer.lin_r.weight f4 [16, 20]
0	0xbdd0d5d9	-0.10197038
1	0xbde2d6dc	-0.110761374
2	0x3dd75b65	0.10515479
3	0x3dbe1ab8	0.0928244
4	0xbdcb85c1	-0.09937621
5	0x3dcd26c5	0.1001716
6	0xbde2836f	-0.11060225
7	0x3dcd044d	0.10010586
8	0x3dc00d38	0.09377521
9	0x3dac72b2	0.08420314
10	0x3dcd3f56	0.10021846
11	0x3df28107	0.11841016
12	0x3dd56881	0.10420323
13	0x3dd79233	0.10525932
14	0xbd7ea84d	-0.062172223
15	0x3dc3f6d0	0.0956856
16	0xbdbe0195	-0.092776455
17	0xbde6bf94	-0.112670094
18	0xbdaec6bd	-0.08534
19	0xbddfe9cd	-0.10933266
20	0x3dca0c15	0.09865586
21	0x3ddc1e67	0.10747986
22	0xbdcffef5	-0.10156051
23	0xbdb80bc9	-0.08986623
24	0x3dc49575	0.09598819
25	0xbdc60508	-0.096689284
26	0x3ddb6a1a	0.10713597
27	0xbdc74e5b	-0.09731742
28	0xbdba5bc2	-0.09099533
29	0xbda6b2a6	-0.08139543
30	0xbdc65a3f	-0.09685182
31	0xbdeb52f0	-0.114904284
32	0xbdcea6b6	-0.10090391
33	0xbdd03596	-0.10166471
34	0x3d75f805	0.060050983
35	0xbdbdb5da	-0.09263201
36	0x3db80bc8	0.08986622
37	0x3ddfa0dc	0.10919353
38	0x3da8c209	0.08240134
39	0x3dd91799	0.10600204
40	0x3db9e265	0.090763845
41	0x3dcb4d3d	0.099268414
42	0xbdbe2edc	-0.092862815
43	0xbda952f3	-0.082677744
44	0x3db41cd8	0.08794564
45	0xbdb5bf69	-0.08874399
46	0x3dc9fc1a	0.09862538
47	0xbdb8ec34	-0.09029427
48	0xbdabf84e	-0.0839697
49	0xbd98c71b	-0.07459851
50	0xbdb6901c	-0.089142054
51	0xbdd92540	-0.10602808
52	0xbdbe6b2d	-0.09297786
53	0xbdbea4ce	-0.09308778
54	0x3d61646b	0.055027407
55	0xbdae7d10	-0.085199475
56	0x3da98976	0.08278172
57	0x3dce8b8c	0.1008521
58	0x3d9ae7fb	0.07563778
59	0x3dc7ea69	0.09761507
60	0xbc986f2c	-0.018607698
61	0xbcaa2b7e	-0.020772692
62	0x3c73d6a5	0.014882718
63	0x3c886e1b	0.016654065
64	0xbc770859	-0.015077674
65	0x3c8619bc	0.016369693
66	0xbc8e2508	-0.017351642
67	0x3ca410b6	0.0200275
68	0x3c856ab5	0.016286233
69	0x3c3f6b15	0.011683245
70	0x3c8baa46	0.017048966
71	0x3cb51409	0.02210428
72	0x3c9fa210	0.019486457
73	0x3c5fd5f4	0.01366185
74	0xbc1d0fb4	-0.009586263
75	0x3c8dc6f0	0.017306775
76	0xbc8511ff	-0.016243933
77	0xbca3c6bc	-0.019992225
78	0xbc4d9b83	-0.012549284
79	0xbc859d9a	-0.016310502
80	0xbdcc229c	-0.09967539
81	0xbddca18a	-0.10772999
82	0x3de727b5	0.112868704
83	0x3dc0798d	0.09398184
84	0xbdd39da9	-0.10332806
85	0x3dcb89a0	0.09938359
86	0xbdcafd2b	-0.09911569
87	0x3dd4b74a	0.10386522
88	0x3dbd3a9d	0.09239695
89	0x3db1fb71	0.08690537
90	0x3dc47436	0.09592478
91	0x3dece609	0.11567313
92	0x3dd5e888	0.104447424
93	0x3dc73959	0.09727735
94	0xbd7dc16a	-0.061952032
95	0x3dcdee3b	0.100552045
96	0xbdb93f7d	-0.090453126
97	0xbdef0fc0	-0.11672926
98	0xbdb6931f	-0.0891478
99	0xbdd6b433	-0.10483589
100	0x3dc5a2c6	0.09650187
101	0x3dd5f83f	0.1044774
102	0xbddfd221	-0.10928751
103	0xbdba6724	-0.09101704
104	0x3dcc5bbe	0.09978436
105	0xbdc471b1	-0.095919974
106	0x3dc45410	0.09586346
107	0xbdcec405	-0.100959815
108	0xbdb72c8f	-0.08944046
109	0xbdac1f34	-0.08404389
110	0xbdbdd108	-0.09268385
111	0xbde58720	-0.11207414
112	0xbdcf08b3	-0.10109081
113	0xbdc06225	-0.093937196
114	0x3d75df0f	0.06002718
115	0xbdc7a002	-0.09747316
116	0x3db3768d	0.08762846
117	0x3de8130a	0.113317564
118	0x3db07e16	0.08617799
119	0x3dd01fa5	0.10162286
120	0x3db60a9a	0.08888741
121	0x3dc571d8	0.096408546
122	0xbdcddca4	-0.100518495
123	0xbdabb772	-0.08384599
124	0x3dbb2e4e	0.09139691
125	0xbdb47cb0	-0.08812845
126	0x3db48e91	0.08816255
127	0xbdbf7da0	-0.09350133
128	0xbda876e2	-0.082258
129	0xbd9df6fb	-0.077131234
130	0xbdaec5c4	-0.085338145
131	0xbdd32cfa	-0.10311313
132	0xbdbec9db	-0.093158446
133	0xbdaff130	-0.08590925
134	0x3d62ea70	0.05539936
135	0xbdb806bd	-0.0898566
136	0x3da57091	0.08078111
137	0x3dd71b33	0.10503235
138	0x3da25b08	0.07927519
139	0x3dbfaaa2	0.093587175
140	0xbc8a2512	-0.01686338
141	0xbca4ed77	-0.020132763
142	0x3c836066	0.016037177
143	0x3c83d8da	0.016094614
144	0xbc4cbf68	-0.012496807
145	0x3c7991f8	0.015232556
146	0xbc5daf02	-0.013530495
147	0x3c9371e5	0.017998645
148	0x3c54dfeb	0.012992839
149	0x3c44125e	0.01196727
150	0x3c7e0a48	0.015505381
151	0x3c951f7e	0.018203493
152	0x3c947674	0.01812289
153	0x3c1cffe4	0.009582493
154	0xbc30fe47	-0.010802812
155	0x3c8c8569	0.017153459
156	0xbc615ec6	-0.013755506
157	0xbccc0184	-0.024903066
158	0xbc5e5b35	-0.01357155
159	0xbc6cf32f	-0.014462276
160	0xbdc2459b	-0.094859324
161	0xbde63e04	-0.11242297
162	0x3dd53a65	0.104115285
163	0x3dbb6ea3	0.09151962
164	0xbdc32604	-0.09528735
165	0x3dc271c6	0.09494357
166	0xbdd6aba0	-0.104819536
167	0x3dd0ae9a	0.101895526
168	0x3dc1e565	0.09467582
169	0x3dcadf29	0.09905846
170	0x3dc3ffce	0.09570275
171	0x3df02dff	0.11727523
172	0x3dd82cba	0.10555406
173	0x3dd91861	0.10600353
174	0xbd8d0614	-0.06885925
175	0x3dbec700	0.093153
176	0xbdc1e949	-0.09468324
177	0xbdf3dc05	-0.119072
178	0xbdaff11d	-0.085909106
179	0xbddcff08	-0.10790831
180	0x3dbbbda7	0.09167033
181	0x3de01fb6	0.109435484
182	0xbdce3559	-0.10068769
183	0xbdb5b54f	-0.088724725
184	0x3dbc74c1	0.092019565
185	0xbdbb8769	-0.09156687
186	0x3dd04b2f	0.1017059
187	0xbdcabd9d	-0.09899447
188	0xbdbc3c96	-0.09191243
189	0xbdc4ede9	-0.0961569
190	0xbdbdc71b	-0.09266492
191	0xbde8e853	-0.11372437
192	0xbdd15f7b	-0.102232896
193	0xbdd2070b	-0.102552496
194	0x3d88ac78	0.06673521
195	0xbdb86df9	-0.090053506
196	0x3dbc2392	0.09186472
197	0x3decd9fe	0.11565016
198	0x3daa4eda	0.08315821
199	0x3dd64aac	0.10463461
200	0x3dac7d4a	0.084223345
201	0x3dcf9aa3	0.101369165
202	0xbdbd28e6	-0.092363164
203	0xbda78f1c	-0.08181593
204	0x3dac9d4f	0.08428442
205	0xbdac55c4	-0.08414796
206	0x3dc00483	0.093758605
207	0xbdbba3cf	-0.091621034
208	0xbdadda10	-0.08488858
209	0xbdb5d635	-0.088787474
210	0xbdaf2802	-0.08552553
211	0xbdd6a215	-0.104801334
212	0xbdc0fc0e	-0.094230756
213	0xbdc0dc7c	-0.09417054
214	0x3d7c3dde	0.06158244
215	0xbda95b05	-0.08269314
216	0x3dadd877	0.08488553
217	0x3ddb964a	0.10722025
218	0x3d9ce3aa	0.07660611
219	0x3dc559d3	0.09636273
220	0xbc69a4dc	-0.014260497
221	0xbcc9c6f3	-0.024631
222	0x3c741857	0.014898381
223	0x3c917585	0.017756233
224	0xbc4a2db3	-0.012339997
225	0x3c783e2a	0.01515154
226	0xbc870d00	-0.016485691
227	0x3c8939a4	0.016751118
228	0x3c8317d9	0.016002582
229	0x3c94841d	0.018129403
230	0x3c9844a6	0.018587422
231	0x3ca007ea	0.019535024
232	0x3c8eb128	0.017418459
233	0x3c743ea8	0.014907517
234	0xbc5706d5	-0.0131241875
235	0x3c706ffa	0.014675135
236	0xbc8de5b2	-0.017321441
237	0xbccf0e7a	-0.025275458
238	0xbc5f3137	-0.013622574
239	0xbc71c3a4	-0.014756117
240	0xbdd30f1a	-0.10305615
241	0xbdcf7480	-0.101296425
242	0x3dd3172a	0.103071526
243	0x3dc6098e	0.09669791
244	0xbdd6e788	-0.1049338
245	0x3dcc64dd	0.09980176
246	0xbddf5909	-0.10905654
247	0x3de37eea	0.11108191
248	0x3dd2a115	0.1028463
249	0x3db2faf9	0.087392755
250	0x3dc86761	0.09785343
251	0x3ddfd842	0.1092992
252	0x3de3064a	0.11085184
253	0x3de65c16	0.11248033
254	0xbd7f51a6	-0.062333725
255	0x3dc89b7c	0.09795281

attention_pooling.gate_nn.weight f4 [1, 4]
0	0x3bda1607	0.006655458
1	0xbc122b29	-0.008921423
2	0xbba31b3c	-0.004977612
3	0xbb8d4e65	-0.004312324

final_scorer.weight f4 [1, 8]
0	0x3f666b6b	0.90007657
1	0xbf5f582f	-0.8724393
2	0xbf4dc7e8	-0.8038316
3	0x3e25956b	0.1617028
4	0x3e699de2	0.22814134
5	0x3e8ec416	0.27883977
6	0x3e8e1a37	0.27754375
7	0x3e110e93	0.14165716
